models/3.7.sentence_level_pos.pth (torch, 345208 bytes, 15 tensors)

char_embeddings.weight f4 [150, 64]
00000000: 0000 0000 0000 0000 0000 0000 0000 0000
00000010: 0000 0000 0000 0000 0000 0000 0000 0000
00000020: 0000 0000 0000 0000 0000 0000 0000 0000
00000030: 0000 0000 0000 0000 0000 0000 0000 0000
00000040: 0000 0000 0000 0000 0000 0000 0000 0000
00000050: 0000 0000 0000 0000 0000 0000 0000 0000
00000060: 0000 0000 0000 0000 0000 0000 0000 0000
00000070: 0000 0000 0000 0000 0000 0000 0000 0000
00000080: 0000 0000 0000 0000 0000 0000 0000 0000
00000090: 0000 0000 0000 0000 0000 0000 0000 0000
000000a0: 0000 0000 0000 0000 0000 0000 0000 0000
000000b0: 0000 0000 0000 0000 0000 0000 0000 0000
000000c0: 0000 0000 0000 0000 0000 0000 0000 0000
000000d0: 0000 0000 0000 0000 0000 0000 0000 0000
000000e0: 0000 0000 0000 0000 0000 0000 0000 0000
000000f0: 0000 0000 0000 0000 0000 0000 0000 0000
00000100: 99e2 f93d 2c69 d03f f9c1 a83f 79ea 4a3f
00000110: 4c31 863f 18e3 1a3e a01d 9d3f 0720 433e
00000120: 0fe0 14bf 9072 2fbf 5a73 f73e c205 2fbf
00000130: d45a 863e 1d2b 863f 615a fe3b 10bf a9bf
00000140: a7a1 dbbd 95e2 293f 30c0 0440 1450 bebf
00000150: 699b 96bf 8e85 80bf ca95 1f3e f041 6cbf
00000160: 3a50 843e 40c5 903e 8b81 d6bd 595b 55be
00000170: f921 60bd d902 6d3c 8578 ecbd e072 3d3f
00000180: 87b5 7fbf 804e 313f 5d04 4b3f 75ca c23f
00000190: 4715 d8be 227c 5a3f 59f5 7f3e 12e8 8d3e
000001a0: 2533 8c3f 0c6c 83be 8941 d33b 545e db3f
000001b0: 71f2 91bf 2e0b ffbe e946 0040 f0d9 58bf
000001c0: a307 6b3f cc97 893f 91d9 f8be decd eabf
000001d0: a262 f7bf c841 53be 6657 ccbd 9ecd 2bbf
000001e0: 7d0f 5bbf 3afc da3e acea 11be 1442 3a3d
000001f0: 73a0 993d 2996 293f 95fd 07bf ae8a bc3f
00000200: 3ec2 0840 a2b5 d6be 49a2 dbbe 3e82 60bf
00000210: 4bb1 b6be ca4d e8bd 6a17 03be 7a18 40bf
00000220: 9010 043f dd04 063e c6ed 6a3e 72b4 83bf
00000230: 73b3 523f 9927 883f 0623 0fbe 7f5f 24bf
00000240: 22c9 093f 660f 6fbf e8e5 d0bd 6faf 6fbf
00000250: 9385 9f3f 86dd 0fbf fac9 8bbd 8341 0a3f
00000260: 1fd2 66bf 2efb 12bf 949b ecbe 3448 94bf
00000270: 5aea a33e 2811 1ac0 b275 1fbe ffec f93f
00000280: 7778 6abf 3003 a7bf 08be 7ebe c174 ad3f
00000290: 7b47 56be 4c3b 573f 97e4 ec3e 1476 963c
000002a0: f935 eb3f 9ae9 c13b c511 a33f ecf3 553f
000002b0: 9315 003f b967 1cbf f61b 35bd 168a 9bbe
000002c0: a7b4 a23c 260d 1d3d cb3e d33e 7019 4f3d
000002d0: 7539 d7be 017a c9be bc5b 893f e65b 603e
000002e0: 4652 febd e570 d33e 1c7a e33e daca 6fbf
000002f0: e479 e6be fc67 c73e 5a39 453f daf9 8b3f
00000300: 2129 e83e 71eb 483f a9b9 4f3d 0f65 07bf
00000310: ad01 33bf 22a5 ffbd cbe5 b23e 4d8e 2b3f
00000320: 4876 3a3d 8a43 03bf 9272 553f 813a db3f
00000330: 2eb0 013f e229 b73e e9af 843f 6af4 2dbd
00000340: c8f8 e93d de15 b23e 81e9 15bf 9a1a 22bf
00000350: dad8 de3e 1dd1 46bf b563 c83e 34b6 ac3f
00000360: 2c26 0e40 6ad7 c2bf 0bdf 64bf a59f fdbf
00000370: b90a b63e b068 babd c514 ddbe f22c 673e
00000380: 2d0d 6b3e 9b4e eabf 55f5 d7bf d74d 8abc
00000390: 6ac4 a9be 6cdb e53e 5f47 82be b498 5a3f
000003a0: 0a0f 4bbf 1c5c 81bb fcd0 ebbf 9c63 4cbe
000003b0: 1a32 d13f 450e 623f 7205 2d3f 6e6e d93e
000003c0: 560c da3e ad75 bcbe c4f8 8e3f 5974 7c3f
000003d0: 7c1c 0f3f bab2 5fbe 4f12 27bf 3f66 41bf
000003e0: e01f bc3e afef 623f 593c 48bf 04c9 67bf
000003f0: c45a 93bf bb03 d83e e97e 3d3e 8a96 d6bd
0.0 0.0 0.0 0.0 0.0 0.0 0.0 0.0
0.0 0.0 0.0 0.0 0.0 0.0 0.0 0.0
0.0 0.0 0.0 0.0 0.0 0.0 0.0 0.0
0.0 0.0 0.0 0.0 0.0 0.0 0.0 0.0
0.0 0.0 0.0 0.0 0.0 0.0 0.0 0.0
0.0 0.0 0.0 0.0 0.0 0.0 0.0 0.0
0.0 0.0 0.0 0.0 0.0 0.0 0.0 0.0
0.0 0.0 0.0 0.0 0.0 0.0 0.0 0.0
0.12201423 1.6282096 1.3184196 0.79264027 1.0483794 0.15125692 1.2274666 0.19055186
-0.58154386 -0.68534184 0.48330194 -0.6836816 0.2624117 1.0481907 0.007762239 -1.3261433
-0.10724192 0.6636136 2.0742302 -1.4868188 -1.1766177 -1.0040758 0.15584484 -0.9228811
0.25842458 0.2827549 -0.10473927 -0.20835628 -0.0547199 0.014466011 -0.11546425 0.7400341
-0.99886364 0.69260406 0.7930353 1.5218035 -0.42203733 0.8534566 0.24995936 0.27716118
1.0953108 -0.2566837 0.0064470214 1.7138162 -1.1402112 -0.49813217 2.004328 -0.84707546
0.9180853 1.074945 -0.4860349 -1.8344076 -1.9326975 -0.20630562 -0.099776074 -0.6711062
-0.8557051 0.4277056 -0.14249676 0.045473173 0.075013064 0.6624475 -0.5312131 1.4729822
2.1368556 -0.4193545 -0.4289725 -0.87698734 -0.3568214 -0.11342962 -0.128019 -0.7503735
0.5158777 0.13087793 0.22942266 -1.0289443 0.8230507 1.0637084 -0.13978204 -0.64208215
0.5382253 -0.9338287 -0.10200101 -0.93627065 1.2462639 -0.5619739 -0.06825633 0.5400621
-0.9016437 -0.5741452 -0.46212447 -1.1584535 0.32014734 -2.4072971 -0.15572241 1.952545
-0.91590065 -1.3047848 -0.24877179 1.3551255 -0.20925705 0.84074855 0.4626815 0.01836685
1.8375846 0.00591774 1.2739798 0.8357532 0.5003292 -0.6109577 -0.04421612 -0.3037879
0.019861532 0.038342617 0.41258845 0.05056137 -0.42036024 -0.39350894 1.073112 0.21910056
-0.12418036 0.4129707 0.444291 -0.936689 -0.4501487 0.3894652 0.77040637 1.0935624
0.4534388 0.78484255 0.05071417 -0.5288858 -0.6992443 -0.124826685 0.34940943 0.6701401
0.045522958 -0.5127493 0.83377945 1.7127229 0.50659454 0.35774142 1.0366184 -0.04246942
0.114244044 0.34782308 -0.58559424 -0.6332184 0.4352482 -0.7766283 0.3913857 1.3493104
2.2210798 -1.5221989 -0.89402837 -1.9814345 0.35555056 -0.09101999 -0.43179908 0.22575739
0.22954245 -1.8305238 -1.6871744 -0.01688282 -0.33157665 0.44893968 -0.25445077 0.85389256
-0.7931982 -0.003947748 -1.8423152 -0.19959873 1.6343415 0.88303024 0.67586434 0.42467064
0.42587537 -0.3680853 1.1169667 0.9861503 0.5590284 -0.21845523 -0.6526231 -0.7554664
0.3674307 0.8864698 -0.78217083 -0.905411 -1.1512074 0.42190346 0.18505444 -0.10477932

single_token_backbone.layers.0.0.weight f4 [64, 64, 3]
00000000: 30a4 e13c df20 7fbd df47 52be 8b21 5f3e
00000010: c2e6 df3d 56f3 0f3f b3cb 15bd 2ae9 21bc
00000020: 065d 683d d806 933d cd88 a53e 8767 103e
00000030: fdb1 9d3e 8fc9 b73e 7d83 68be f8ae e6be
00000040: 1a80 353e 4d42 c3be 76df 2fbf 35db 96bd
00000050: bc97 f6be 65ee 00be 12e4 233d 4d0e a1be
00000060: 9233 c3be 7060 25bf 3f73 63be e0ae c03e
00000070: 5762 d4be ed88 28bc b175 aabd c026 a63e
00000080: bac2 43bd 67c2 7dbe 40ee 7b3e b8ad cd3d
00000090: ca7b 153e ba64 29bf 15c9 6dbd 1c01 523e
000000a0: a3f4 b5bd ae08 92bd c772 ecbd cba9 1fbd
000000b0: fb19 b0be 9c0a 173f d106 b23e b0e5 913e
000000c0: 8b9c 5cbe 98bd afbc c801 80bd f658 1c3f
000000d0: c492 903d 2c74 883e aad5 983e 2590 8fbe
000000e0: 413d 57be 9ea2 70be b284 c13d 0273 ff3d
000000f0: 16b0 e63c 501b 833e e63e 793e 2b76 b73d
00000100: 5806 2c3e 8d8d 05be 7655 90bd 7419 ba3c
00000110: 18cc 453e 298c 9b3d ad81 86bd 3aa7 453d
00000120: 117c fb3d 8dfb 9cbc 7860 12be 9753 8abe
00000130: 70e3 9d3d 35e3 8f3d 9c20 5b3e 6903 e3bb
00000140: a100 003f 82a1 b03e e5b4 243e 05e4 153f
00000150: bf0a 38be bb00 bbbc f914 15bf 1b8f 253d
00000160: 7047 90bc 11bc 783c ddd9 f93d c8e2 9d3d
00000170: 3af3 c93c f0e7 b0be a98c 1cbe 242f e7be
00000180: 4cdb 293d c7d4 b83d 8053 363e 30c5 fe3d
00000190: 1e70 133e a009 8a3d b27a aa3e 17d5 743e
000001a0: 3d78 523d eb75 c83d 0735 b8be a0f7 40be
000001b0: 6cc5 7a3e a0e9 9a3e 49bb b8bd c40a efbd
000001c0: e14a 57be 673b 183e c967 15be 30ad 79be
000001d0: 9615 2b3d 10af a8be 3ac6 4a3e 9617 40be
000001e0: 08d2 28bd 06c0 b73e 246e 9a3d 1f97 783e
000001f0: 66e4 04be 03af 5d3e 1d0d 323d ba0a 6ebd
00000200: c253 d5bc 5376 173d 31ad 7bbe d64d 12bf
00000210: d8d6 c6be 2a1d 82be 18a1 fdbe 551c 1f3c
00000220: f51f ecbd ea9b acbd fca2 61bd 8a87 50be
00000230: e645 06be 33de 213d 1723 7fbe b271 27be
00000240: 7f0b a9be 516d 993d d4d2 dbbd d8cf 163d
00000250: 0c15 ecbd 16a2 83be 538e 69be 3deb a1be
00000260: f219 ab3d fc88 2dbe 61c7 92bd 8008 c4be
00000270: 78f1 c5be 0365 8dbd fb13 acbe b122 89bd
00000280: cf40 d73d 6ad6 10be 867c acbd 367b ba3d
00000290: de74 72bd 25e2 6f3e c949 aabd ed49 9f3e
000002a0: 950c 503e d510 a43e d709 b5be 71bd b9bd
000002b0: d189 8fbe 24fe 12be 2578 18be 2434 183e
000002c0: 9676 603e bbef 4e3d a05c 7ebe 83a8 5b3e
000002d0: b3dd 843e c74a 003e 4a6b 693c a8b5 663e
000002e0: e6ad 74be 618a 6d3e 7e66 20bf e3f2 913b
000002f0: 34c7 81be 93a0 3ebd 9b70 64bd e5c5 b73e
00000300: 33ed 82be a5df 93be 33b7 5fbd 7c5e 303d
00000310: 8e5c 853c 2b18 223c d2a7 d63d 32c5 103d
00000320: 45ef 0cbf d454 8b3e 4e31 8abe f8f9 01be
00000330: f891 f33e 1126 61bc d352 99be a1f8 6f3e
00000340: 29a1 433d 5eb5 9abe dfa5 26be 9ada b0bd
00000350: 9880 a4be 20a4 7d3e f7ba 05be 2c01 c6be
00000360: 5551 debe c0a0 153d d52e 62be 4f81 083e
00000370: 6ce7 ac3e f36a fb3d 8f76 d13b cb0b b73d
00000380: 393c cc3d 1604 ffbc 8b8a 8abd 20a2 20be
00000390: 94b4 edbc b62d 5bbe 192d bfbc 4309 9c3d
000003a0: 749a d4be 3b9b 053e 83a9 63be 75e9 093c
000003b0: 5319 e3be c867 303e 066f c53e df3c 163e
000003c0: 73c3 bb3d 740c b43e a2ff 54be b73d 73be
000003d0: 5e6a a23e 5660 78be 768f ca3d af75 7cbe
000003e0: 7cb4 f2bb dd19 103e cdba ec3d 6d49 e73d
000003f0: e9a1 44bb b40a d6be 6ead 2cbd b14c d1bd
0.027544111 -0.062287208 -0.20535229 0.2179014 0.109326854 0.56230676 -0.036571216 -0.009882251
0.05672934 0.0717904 0.32330933 0.14101993 0.30799857 0.35895965 -0.22706409 -0.45055366
0.17724648 -0.3813652 -0.6870035 -0.07366029 -0.4816264 -0.1259094 0.040012427 -0.31456223
-0.38125283 -0.64600277 -0.22211932 0.3763342 -0.41481277 -0.010286552 -0.08323229 0.3245144
-0.047793128 -0.2478119 0.24602604 0.100429 0.14598003 -0.6616932 -0.058053095 0.20508236
-0.088845514 -0.07130562 -0.115453295 -0.038980287 -0.34394822 0.59000564 0.34770826 0.2849555
-0.21544091 -0.02145271 -0.0625034 0.61073244 0.07059243 0.26651132 0.29850513 -0.2803966
-0.2101946 -0.23499534 0.09449138 0.12473108 0.028160136 0.25606775 0.243404 0.089580856
0.16799295 -0.13042279 -0.070475504 0.022717215 0.19316137 0.07595093 -0.065677024 0.048255183
0.12279523 -0.019162918 -0.14294612 -0.270169 0.07709396 0.07025758 0.21399158 -0.0069278968
0.5000096 0.3449822 0.16084631 0.58551055 -0.1797285 -0.022827497 -0.58235127 0.04041968
-0.017612189 0.015181557 0.12199757 0.07709271 0.024652112 -0.34551954 -0.15288033 -0.45153153
0.041468903 0.09024959 0.1780529 0.12439954 0.14398238 0.06740117 0.33296734 0.23909412
0.0513842 0.09788116 -0.35977957 -0.18844461 0.24489373 0.30256367 -0.09020097 -0.11671975
-0.21024658 0.1486641 -0.14590372 -0.24382472 0.041768633 -0.32946062 0.1980218 -0.18758997
-0.041215926 0.3588869 0.07540539 0.24276398 -0.12977752 0.21648793 0.043469537 -0.0581157
-0.026040915 0.036978077 -0.24577786 -0.5715002 -0.38835788 -0.25412875 -0.49536967 0.009711345
-0.11529533 -0.08428176 -0.055087075 -0.20364204 -0.13112602 0.039518546 -0.2491573 -0.16351965
-0.33016583 0.074915536 -0.10733572 0.03681931 -0.11527452 -0.257096 -0.22808199 -0.31624785
0.08354558 -0.16946787 -0.07166935 -0.38287735 -0.3866079 -0.06904032 -0.33608994 -0.0669607
0.10510408 -0.14144292 -0.084221885 0.09105532 -0.059193484 0.23426111 -0.08314855 0.31111088
0.203173 0.32044092 -0.3535907 -0.09069336 -0.28034833 -0.1435476 -0.14889582 0.1486364
0.21920237 0.050521594 -0.24840021 0.21451001 0.25950393 0.12528525 0.014246771 0.22530234
-0.23894462 0.23197319 -0.6265639 0.004454003 -0.25347292 -0.046539854 -0.05577145 0.3589317
-0.25571594 -0.28881565 -0.05461807 0.043058857 0.016279485 0.009893457 0.10481228 0.03534431
-0.55052596 0.27213156 -0.26990741 -0.12693012 0.47572303 -0.013741986 -0.29946002 0.23434688
0.047761116 -0.30216497 -0.16274212 -0.08635445 -0.3212936 0.2476964 -0.13059603 -0.3867277
-0.43421426 0.036530256 -0.22088178 0.13330577 0.3377031 0.12276258 0.006392307 0.08937796
0.09972424 -0.031129878 -0.06764706 -0.15686846 -0.02901677 -0.21404156 -0.023336934 0.07618954
-0.41524088 0.13047497 -0.22232632 0.008417477 -0.44355258 0.1722709 0.38561267 0.14671658
0.09168138 0.3516575 -0.20800641 -0.23754011 0.31721777 -0.24255499 0.09890644 -0.24654268
-0.0074067693 0.14072366 0.11559067 0.11293302 -0.0030003733 -0.4180504 -0.042157583 -0.10219706

single_token_backbone.layers.0.0.bias f4 [64]
00000000: ec8a bebc d3aa e8be 8649 dc3d 1c2f 7dbc
00000010: 4d58 883d 8dca 033e 46d9 20be ae0a 043e
00000020: 1b14 a6be 67fa 3f3a 863b 5ebe d9a5 b13d
00000030: 53a5 153d 153a a1bd 5fd7 64bf 3a9f 483d
00000040: dcfb 873d c55f 84be e68f 833d e69a 3abe
00000050: b7fb 03bd cb78 083d 36bf 95be 7f5a 5dbf
00000060: 4485 313d 6318 0ebf 5d8b 88be a484 a1be
00000070: 97cd 78be 3077 43bc c284 b53d d445 d1be
00000080: e87e 10bf e158 0cbf a774 b9bf 57ec 33be
00000090: a13b e4bf e0ad 6e3d b602 05bf b4d8 92bf
000000a0: 8db7 e1be 1842 7c3d 7c6c 97bc ca41 3cbf
000000b0: ac3a 0cbf c83c 22bc 423c 3fbf eafe 293d
000000c0: 1781 8abf ffe0 123d 41a8 f03d b044 4dbf
000000d0: b805 0dbf 88b4 73bf 78b7 fe3d 4062 f73d
000000e0: 404f adbd 1297 91be 695c 4ebe 72c7 d3be
000000f0: f3bc 56bf d58e e7be 3a58 a9bf d261 653d
-0.023259602 -0.4544283 0.10756211 -0.015453126 0.06657467 0.12870236 -0.15707883 0.12894699
-0.32437214 0.00073233846 -0.21702394 0.08674211 0.03653462 -0.078724064 -0.8939113 0.048979975
0.06639835 -0.25854316 0.06423931 -0.18223152 -0.032222476 0.033318322 -0.29247445 -0.8646621
0.043339983 -0.5550596 -0.26668826 -0.3154651 -0.24297176 -0.011930272 0.08863212 -0.40873587
-0.56443644 -0.5482312 -1.4488724 -0.17570625 -1.7830697 0.05827129 -0.5195726 -1.1472383
-0.4408535 0.06158647 -0.018484347 -0.73537886 -0.54777026 -0.009902187 -0.7470132 0.04150287
-1.0820645 0.035859104 0.11750842 -0.80182934 -0.5508685 -0.95197344 0.12437338 0.120792866
-0.08462381 -0.2843557 -0.20152439 -0.41363102 -0.83882064 -0.4522616 -1.323005 0.05600149

single_token_backbone.layers.1.0.weight f4 [64, 64, 3]
00000000: b59d 9fbe 8a9f b3be e251 94bd a956 c83e
00000010: 9814 613e 4c60 18bd 64e0 b93d 8d9d 9c3c
00000020: 96c0 0fbd 8409 44be bf1c 1cbe 883e 39bd
00000030: 0e09 80be a1d8 0fbc 3e9f 09be d1bc 3fbe
00000040: 73cd d9bc 35ea d03c 04cc 113a 8336 36be
00000050: 54a2 7a3d 79e3 973d a163 61be 4e25 173c
00000060: 73f6 58be e45f b5be a319 dcbe 77d9 21be
00000070: 1d14 20bc ee73 523e eb3a 19be a443 903c
00000080: 602c 12be 2a05 4bbe 5006 b5bc 6c46 25be
00000090: 362b cbbb 1fd3 48bc e154 033e bf93 a4bc
000000a0: a6c8 68bc 3e4c 3cbd 107b b6be df3e 24be
000000b0: 3bb2 91bd fe87 88bd a650 2e3e 3eff 253d
000000c0: 601e 913d 7ba3 573e 48ce 08bd e214 17bd
000000d0: 50ec ae3d 63f2 31be 0dba f6bb 4735 9b3d
000000e0: 10df bbbe e16d 8abd 09cf 3cbe 5cfa 42be
000000f0: 1262 a8be 5d05 5fbe dc6f bfbd 7207 9ebc
00000100: 65b1 44bc 3495 9e3d 7c20 a6be 047e c03d
00000110: 12e2 393e 0ea5 16bf b2b2 a13d 176d f7bd
00000120: c500 813c 6075 543e 7ede 4f3e 6071 abbe
00000130: b886 8fbd e76e d8be 0ff2 dbbd 66f8 14be
00000140: 9538 643d 9cca 5a3e b41b b2bd 4fc7 91be
00000150: 41c6 23be 3bd3 aabe db1b 23be fc87 f43c
00000160: da6f bf3b 42ed 5bbd 4ff9 213d 0748 aa3d
00000170: b79d f7bc 8b41 4bbe 8bfd b1be bbee 87be
00000180: 5209 913d 0b99 cbba 19d0 edbd b00e 613e
00000190: 8682 823d 8e18 4bbe 41f4 04be fd8f 08bf
000001a0: 9264 e5be 06e1 103e ff2d 41be 9375 87be
000001b0: a643 10be cb49 1b3d b4cc 9b3c 2596 ac3e
000001c0: 00e7 f63c 06f1 f03d f32f 15bf 8aa9 56be
000001d0: cc69 87be 980d b4be dca4 a6be e410 19be
000001e0: 8ce1 82be 1b4e 91be 3387 e6be 3ac9 1d3e
000001f0: 09a7 683d 9290 f83c 3d43 4ebd 2fb8 21be
00000200: ad8b ac3d 2b92 edbe 684f babe 2065 09bf
00000210: 53d3 46be 18d6 03ba acac a1bc 485e db3d
00000220: 6770 863e 2982 e03d 4eae 88bd e205 95be
00000230: 6396 e8bd 081c e33d 16ba 2c3e 2189 023d
00000240: ef10 92be c621 c6bc b847 0bbf 91fd 3fbd
00000250: 9541 2f3e 499a 403e 62d7 2c3e c113 9c3a
00000260: e693 59bc b169 46be d301 c4bd ad73 de3c
00000270: 5c08 9ebe 584f 80be 2c39 283e 2410 00bf
00000280: b62e 00bf c83d 72be c717 21be 323c 29be
00000290: 0000 a4bc 962a 40bd b179 09be d5b9 1abe
000002a0: ad24 a6be d6d7 e2be bbc1 adbe bca1 0bbf
000002b0: d4ad 95be ef64 5abe b2f1 9fbe 4329 9ebe
000002c0: 3a9f 78bc 3694 28be 88d0 743d 3708 8fbe
000002d0: 0c68 0b3f edfb 813d 3629 adbe 2c51 b6be
000002e0: 3967 67be 4cc7 02bd 2960 bfbd b962 c1be
000002f0: 3a27 d8bc 23fe cb3d e7d8 873d 0de9 44bd
00000300: c411 d4bd 2dde 933d d3e4 0cbe 761e 5dbe
00000310: ed7b 53be 3f93 d63d e3e3 74be 4cb2 48be
00000320: b6a5 fb3d abf9 3e3e bc6f be3d 1e94 ea3d
00000330: 0943 14be e310 a8bd 2afc 03be 4700 933d
00000340: 21d7 6cbd ba3d 87be b648 143e 9228 10be
00000350: eae1 11bf 1afa ca3d c466 f7bd 60e8 72bd
00000360: 8906 823d cba4 13bf 5fbd 02bf 3775 4cbd
00000370: 8518 a23d cc22 dc3d b04d 26bf 67c4 08be
00000380: a386 063d f143 a73c b458 13bd 1e82 03be
00000390: 68db bfbe 4f85 8ebe 9477 b13e 394a afbe
000003a0: 6d8e cb3c f0f3 b33d aee9 c13d de1a b5be
000003b0: 8969 bdbe 6f16 b9bc bfb8 d33d 526d a53d
000003c0: abd1 a63d c61b 49be 2123 193e f8b0 41be
000003d0: ea7b 1bbf 169d 743d 344c 023d d709 383c
000003e0: b400 193e de12 cd3e 6b87 463e f7ea a7bd
000003f0: 445b 49be 86f4 243c 6ebc 683e 2ebd cbbd
-0.31175008 -0.35082656 -0.072421804 0.39128616 0.21980512 -0.03720121 0.09076002 0.019118095
-0.035095774 -0.19144255 -0.15245341 -0.04522565 -0.25006908 -0.008779676 -0.13439652 -0.18724371
-0.026587224 0.025502304 0.0005561712 -0.17794232 0.061189964 0.07416434 -0.22010662 0.009225203
-0.21187763 -0.3542472 -0.4298831 -0.15805613 -0.00977042 0.20552036 -0.14963882 0.017610379
-0.1427474 -0.19826189 -0.022097737 -0.16140145 -0.0062002195 -0.012257366 0.12825347 -0.020089982
-0.014207995 -0.045971148 -0.35640764 -0.16039608 -0.07114073 -0.066665635 0.17022952 0.04052662
0.07085872 0.21058457 -0.03339985 -0.03688515 0.08541167 -0.1737762 -0.007529503 0.07578521
-0.3669362 -0.06759239 -0.18438353 -0.19040817 -0.32887322 -0.2177939 -0.09347507 -0.01929066
-0.012005185 0.07743302 -0.3244666 0.093990356 0.18152645 -0.58845603 0.078954116 -0.12081354
0.015747437 0.207479 0.20299718 -0.33484936 -0.070081174 -0.42272112 -0.107395284 -0.14547881
0.055718023 0.21366352 -0.0869669 -0.28472373 -0.15993597 -0.3336428 -0.15928595 0.029849999
0.005842191 -0.053693064 0.0395444 0.083145194 -0.030226571 -0.19849221 -0.3476375 -0.26549324
0.07081856 -0.0015533281 -0.11611957 0.21978259 0.063725516 -0.19833586 -0.129838 -0.5334471
-0.44803292 0.1414834 -0.18865202 -0.2645689 -0.14088306 0.03791217 0.019018508 0.337083
0.030139446 0.117647216 -0.5827629 -0.20963112 -0.26447904 -0.3516662 -0.32547653 -0.1494785
-0.25562704 -0.28379902 -0.45025024 0.15408793 0.056799922 0.030342374 -0.050357092 -0.15792917
0.084250785 -0.4640058 -0.36388707 -0.5366993 -0.19416551 -0.0005029156 -0.019735657 0.10711342
0.2625763 0.10962326 -0.06673871 -0.2910605 -0.11356809 0.11089331 0.16867861 0.031869058
-0.28528544 -0.024186026 -0.5440631 -0.04687268 0.17114861 0.18808855 0.16879037 0.0011907743
-0.013279891 -0.19376256 -0.095706604 0.027154768 -0.30865753 -0.25060534 0.1642806 -0.5002463
-0.50071275 -0.2365638 -0.15731727 -0.16526869 -0.020019531 -0.046915613 -0.13425328 -0.15109952
-0.32449856 -0.44305295 -0.33936867 -0.5454366 -0.29234183 -0.21327566 -0.31239086 -0.30890855
-0.015174681 -0.16462788 0.059769183 -0.27935955 0.5445564 0.06346879 -0.33820504 -0.35608804
-0.2259797 -0.031928346 -0.09344513 -0.37770632 -0.026385892 0.09960582 0.06633168 -0.048073817
-0.10354951 0.07220111 -0.13759165 -0.21593651 -0.20652743 0.10477304 -0.23915057 -0.19599265
0.12287466 0.18649928 0.092986554 0.11454032 -0.14478697 -0.08206346 -0.12889162 0.07177787
-0.05782235 -0.2641428 0.14480862 -0.14077976 -0.5698534 0.09910984 -0.12080148 -0.05930364
0.06348903 -0.5767333 -0.5107021 -0.049916472 0.07914833 0.107488245 -0.6496229 -0.13356172
0.032843243 0.02041814 -0.035973266 -0.12842605 -0.3747208 -0.2783608 0.34661543 -0.34236315
0.024848187 0.08786762 0.09468399 -0.3537206 -0.3699458 -0.022593705 0.10337972 0.08077492
0.0814546 -0.19639501 0.14954807 -0.18915164 -0.6073595 0.05972012 0.031810954 0.011232815
0.14941674 0.40053457 0.19387595 -0.08199113 -0.19663721 0.010068065 0.2272813 -0.099481925

single_token_backbone.layers.1.0.bias f4 [64]
00000000: c128 1a3e a685 d23d 544c 183e c470 b2bc
00000010: 6039 a33d 771f e6be 0574 23bd a5ce 85bd
00000020: e30a b9be dfd7 3dbe 4f01 e7be 2654 1f3e
00000030: 8e97 b43d 1c8b 433c 135f 853d 6d14 3dbf
00000040: d2f0 4dbe aa51 283e 0411 46bd 592f afbe
00000050: 6063 f4bd cdee 653e e658 44be 3cb7 67bf
00000060: d765 06be ce8e 833c 2ed5 5a3e a667 cd3d
00000070: 644f 87bd 5b2c f0bd cfc8 053e f633 87be
00000080: df08 29bf 9ace 9e3d 3486 723d e23f dbbe
00000090: 8d4b 3abe 8551 0dbf 8b72 223e 9697 6bbf
000000a0: 84e9 99bd 3505 193d b0f0 59bd 308f a03d
000000b0: 9618 a6be 75d6 e4be 97fa 0dbe 9d02 28bf
000000c0: a81c 29bf 3a42 1b3d b1d3 f73d c4a8 b3be
000000d0: d3e2 7abf d255 a63c b942 073e b0cd 013e
000000e0: 461c 11bf 725d c5bb 3466 8aba 8774 033e
000000f0: dd54 883c 88a3 17be b471 80bc c33f 603d
0.15054609 0.10279398 0.14872867 -0.021782286 0.07969928 -0.4494588 -0.039905567 -0.06533555
-0.36141118 -0.1853938 -0.45118186 0.15559444 0.08817969 0.011935022 0.065122746 -0.7385929
-0.20111397 0.16437402 -0.04835607 -0.3421581 -0.11933017 0.22454377 -0.19174537 -0.9051397
-0.13124786 0.016059306 0.21370384 0.10029535 -0.066069394 -0.1172721 0.13064884 -0.2640683
-0.6602916 0.0775425 0.059210017 -0.42822176 -0.18192883 -0.55202514 0.15864007 -0.92028177
-0.07515243 0.03735848 -0.053208053 0.07839811 -0.32440633 -0.44694868 -0.13865124 -0.6562899
-0.6605935 0.037904955 0.12100924 -0.35089695 -0.98002356 0.020304594 0.13209046 0.1267612
-0.56683767 -0.0060231024 -0.0010559023 0.1283742 0.016642028 -0.14808476 -0.015679218 0.054748308

single_token_backbone.layers.2.0.weight f4 [64, 64, 3]
00000000: 602b 3bbe 0fa3 b6bd 9b0f a8bd d37d 263e
00000010: bed4 83be 9911 a13e dba2 823d 24e3 153e
00000020: 9374 493d b003 7abd aa34 20bc 8e50 8c3e
00000030: ec1d 28bd b29e d13d c749 203c 0e59 4abe
00000040: c169 0a3d 256d 86be e87a 4ebc 3fb1 69be
00000050: 3446 9e3d dc58 2bbe c37d 44bd 6638 6dbd
00000060: 1931 06be eca7 2bbc 0135 0ebe 5a5c a93d
00000070: 8353 debd a252 9e3d c9e6 c6be df3b a3be
00000080: 71cd 3bbe 9987 723d 8413 3cbe 4184 603d
00000090: b5a9 3c3e 1059 ad3c 07c9 653d 0590 d83d
000000a0: 83e0 89be 960c d63d a6a8 29be 124e aa3c
000000b0: 4042 8abe 0589 0b3e 635e 78be a51a bfbe
000000c0: f7f6 23be d3b9 a9bc f90f 8abd 37c5 12be
000000d0: 954a c5bd d2e3 e3bd 1db2 7fbe 5152 55be
000000e0: bf14 08be b7fa 343c 70af 97bd 1d4c 203d
000000f0: 6b08 ccbd 7d10 31bf e068 e6be e917 a4bd
00000100: 0b43 a7be f304 53be 223f 8abd 06a4 8cbe
00000110: 8e02 a4be bfa2 f43d e9a2 5fbe 2b28 ed3d
00000120: cdc4 5d3e cba9 21be 68f6 c0bb 655a f1bd
00000130: a5ac 16be 065b 51bc 6e43 983e 1b3e 053e
00000140: 9fd0 7b3e e790 4b3e a860 38bd 4377 e13a
00000150: 44ca 08bf 1784 343e 4859 13bd 53a3 8c3e
00000160: 0d0a ddbe d1ef 9e3c 83b3 a83c 6d61 0d3e
00000170: 12a5 3d3e 2197 d5be eb13 62be 96ff a23d
00000180: ba88 ee3c d560 70bd aac9 08be efd3 923e
00000190: 2c45 1dbe 58cd 7e3d a9da cf3d 8d08 363d
000001a0: 07f3 a63d 4b0b d3be dc3c c1be 086b 63be
000001b0: 62b9 f73c 8f10 2dbd 6fe4 e8bd e903 6abe
000001c0: d6fb 04bd 5a07 4cbe b2c5 59bd e75d 893e
000001d0: ba8f 133e 444e 62be ac35 073e e70e 05bd
000001e0: b81d 2fbe 4b76 9abb cad9 e13d d600 b53d
000001f0: 2183 febc 670c 31be 3679 1fbe bfa8 6fbc
00000200: 132a 6fbe db6a 79be 1c66 36bd fe79 99be
00000210: 9584 65be 5fdf 84bd 32f6 06bf c44a 8b3d
00000220: 1371 64be f28f c03e 28e3 c3be eda7 6abe
00000230: de3d a9bd 5fb6 753d 9fc7 dfbd 2acc 18be
00000240: 6104 b33d 571d 21be 323d d0be c12a 073e
00000250: 13cf debd c414 32be f55d 97bb a560 e73d
00000260: 5c63 a33d c794 a23d 8e77 96be da84 4ebe
00000270: b092 76be 5211 bebe e76a 3abf 059e bc3d
00000280: 04b0 4bbd 1e1a e9bd 07ef 03be 27d0 9f3d
00000290: 0486 e73c d484 043e 69dc 2fbd 7fb9 18be
000002a0: 75a6 94be d488 9bbe 1fd7 18be 4fc4 433d
000002b0: 56d7 2bbe 39d4 87be 3f49 833e ccfc 093c
000002c0: e7d8 0bbe 299b fa3e 7a3b 243e 12bb 853e
000002d0: 3966 a73e dc00 9abd 5626 06bf a500 7fbe
000002e0: cb5c 88be a914 d5be 30fd 223d a985 46be
000002f0: 45f0 c2be 3942 87be c0b7 c8bd 27f0 c73b
00000300: c4bc 14bc a6cb 89be d63e 52be 4ae4 c23d
00000310: 667f f53d 6c17 fc3c 7122 0fbe f532 a6bc
00000320: 8448 acbd 7fdb 6a3d d90a acbe 8536 47be
00000330: 3d71 89bd 567e 4abe 2aff 483e 6eea d23b
00000340: 74ab abbd c8a9 89be 8644 f8be 18d2 e1bd
00000350: f9cf 63be 3890 6dbd 6641 68bd a735 743c
00000360: aae0 fdbd 4905 44be 1a73 9c3d 43a8 f9bc
00000370: 65ad cfbc f947 553e 8ef2 ebbe 29e5 3ebe
00000380: d2b6 4dbf 1300 eb3d 6fd4 1fbc f66d bbbd
00000390: 044e a83d 2b4e 893e 1118 983d 5d50 6e3d
000003a0: 2b2c eab9 6201 ea3d 9d46 86bd f07a 92be
000003b0: b8c5 f9bd cf2c 31bb 5e7d 99bd 36e5 d4bb
000003c0: c0e9 21bd 2bfb 4b3e 2d01 93bd 180a 0cbe
000003d0: 8520 d6bd 1ad1 323b 25b1 dabe d725 98bd
000003e0: d125 47bd 54d2 663e 1f0f 59be 38d6 9dbe
000003f0: 0725 98be 4bc4 1b3d b7d2 18bd 099c 093d
-0.18278265 -0.0891782 -0.082061015 0.16258936 -0.25748247 0.31458738 0.063787185 0.14637429
0.04918344 -0.061038673 -0.009778181 0.27405208 -0.04104416 0.10235347 0.009783215 -0.19760534
0.03379226 -0.26255146 -0.012602545 -0.2282152 0.07728234 -0.16733116 -0.0479715 -0.057915114
-0.13104667 -0.010477047 -0.13887407 0.08269568 -0.10855772 0.07730605 -0.3884795 -0.31881616
-0.18340088 0.059211347 -0.1836682 0.054813627 0.18424113 0.021160632 0.056099918 0.105743445
-0.269291 0.10451619 -0.1656824 0.02078918 -0.2700367 0.13626488 -0.24254756 -0.37325016
-0.16012178 -0.02071849 -0.06741328 -0.14333044 -0.09633366 -0.11127438 -0.24970289 -0.20832182
-0.13289164 0.011046103 -0.07406509 0.039135087 -0.09962543 -0.69165784 -0.45001888 -0.08012373
-0.32668337 -0.20607357 -0.06750323 -0.2746889 -0.320332 0.11945104 -0.21839489 0.11579927
0.21657105 -0.15787427 -0.005888749 -0.117848195 -0.14714296 -0.012778049 0.29738945 0.13011973
0.24591301 0.19879495 -0.045014054 0.001720168 -0.5343363 0.17628513 -0.035973817 0.27468356
-0.4317173 0.019401463 0.02059341 0.13806696 0.1852 -0.41716865 -0.2207791 0.079589054
0.02911793 -0.058686096 -0.13358179 0.28677318 -0.15358418 0.06220755 0.10149128 0.04444175
0.081518225 -0.41219553 -0.37741745 -0.22208798 0.030239765 -0.04225212 -0.11371695 -0.22853054
-0.032466732 -0.1992468 -0.053167053 0.26829454 0.14410296 -0.22100168 0.13204068 -0.032484915
-0.1710118 -0.0047138087 0.11027868 0.0883805 -0.031068387 -0.17289887 -0.15573582 -0.014627635
-0.23355894 -0.24357168 -0.044530973 -0.29975885 -0.22413857 -0.06487917 -0.52719414 0.0680137
-0.2230876 0.37609822 -0.38259244 -0.22915621 -0.08263753 0.059988376 -0.109267466 -0.14921632
0.087410696 -0.15733849 -0.40671688 0.13199903 -0.1087934 -0.17390734 -0.004619355 0.1129773
0.07977936 0.07938533 -0.29388088 -0.20167866 -0.24079394 -0.3712259 -0.7281937 0.09209827
-0.04972841 -0.113819346 -0.1288415 0.07803374 0.028262146 0.12941295 -0.04293481 -0.14914511
-0.29033247 -0.3037783 -0.14925812 0.047794636 -0.16781363 -0.265291 0.2564182 0.008422088
-0.1365696 0.48946503 0.16038314 0.26119286 0.32695177 -0.07519695 -0.52402246 -0.2490259
-0.26633295 -0.41617325 0.03979224 -0.19386925 -0.38073936 -0.2641771 -0.098006725 0.0061016264
-0.009078208 -0.26913184 -0.20531783 0.09516199 0.1198719 0.030772887 -0.13977982 -0.02028797
-0.08412269 0.057338234 -0.33602026 -0.19454391 -0.067110516 -0.19774756 0.19628587 0.0064366376
-0.083823115 -0.26887345 -0.4848978 -0.110264 -0.22247304 -0.057998866 -0.056702994 0.01490537
-0.12396367 -0.19142641 0.076391414 -0.030475741 -0.025351236 0.20828237 -0.46083492 -0.18642105
-0.80357087 0.114746235 -0.009755238 -0.09151833 0.08218005 0.2681745 0.07426465 0.05818211
-0.00044664866 0.11426045 -0.06556437 -0.2860942 -0.12195915 -0.0027034765 -0.07494615 -0.0064970506
-0.039529562 0.19920032 -0.07177959 -0.13675725 -0.10455421 0.0027285279 -0.42713276 -0.074290924
-0.04862005 0.22541171 -0.21197174 -0.30827498 -0.2971575 0.038028996 -0.03731033 0.033596072

single_token_backbone.layers.2.0.bias f4 [64]
00000000: 632d b33d 4314 c93c 387b 9c3c d0ad 2bbe
00000010: fda1 93be 161e b9bc fc6e 39be 7337 97bf
00000020: bd09 10be de50 e7bd ec73 c1bd 3cd2 c13d
00000030: 12f2 163e 9774 adbc 8433 8d3d 8a91 87bd
00000040: d59c db3d 17c8 ce3d 1f35 00be ef77 efbd
00000050: 818f 94ba d569 3a3e c491 35bc 12c1 3abe
00000060: 4263 273d 6220 76bd 8519 373e 633a 11bc
00000070: a3bd f4be bb74 813d 0243 2d3d 18d1 0cbe
00000080: cc0d 083e 2c9a c33d 45dc a8be d232 e0bd
00000090: 9984 53be eb0c dabd 31eb aa3d 3472 0a3d
000000a0: 3da7 cdbe bc25 843d e2dd 75bd d58e 99be
000000b0: 4a32 e1be 3f8b ed3d baed eabe af1d 1dbe
000000c0: a2e6 eb3c 4312 4abf 6c2c 03be 050c d9bd
000000d0: c5e7 eabb 1ce0 a2be dd2f b63d 4cc2 9c3d
000000e0: 6d88 afbd 42c7 15bc 7c55 ffbe 41a1 f33e
000000f0: 43fb d2be f867 ddbc 1ee3 6e3d 9ca2 4b3d
0.08748891 0.024545794 0.019101724 -0.16765523 -0.28834525 -0.022597354 -0.18108743 -1.1813797
-0.14066215 -0.11294721 -0.094459385 0.09463927 0.1474078 -0.021173758 0.068945915 -0.06619556
0.10723273 0.10096758 -0.12520264 -0.116927974 -0.0011334271 0.18204434 -0.0110821165 -0.18237713
0.040866144 -0.060089476 0.17880829 -0.008864018 -0.4780093 0.06321093 0.04230023 -0.13751638
0.13286513 0.0955089 -0.32980552 -0.10947193 -0.2065605 -0.10646995 0.083456405 0.03380032
-0.40166655 0.0645251 -0.060026057 -0.29991785 -0.4398368 0.11598825 -0.45884496 -0.15343355
0.028796498 -0.78934115 -0.12809914 -0.10597996 -0.0071687424 -0.31811607 0.08895848 0.07654247
-0.08570943 -0.009141745 -0.49869907 0.47583964 -0.41207322 -0.027027115 0.058322065 0.049715623

context_backbone.layers.0.0.weight f4 [64, 64, 3]
00000000: ede9 833d 0480 2fbd 3f94 883e 4ef2 04be
00000010: f9f7 0dbe e884 9ebe ab75 12be 80d8 033e
00000020: 2266 55be 7773 d9bf 55e7 3cbe ab42 36bf
00000030: 7d2c 233f 9b14 f1be af98 063e a908 06bd
00000040: 21ee 41bb 7350 11bf 3311 873e 1e84 bebe
00000050: a3f3 5e3e 05ad 11bd 365c 17be 8eea 24be
00000060: 4f28 5bbe 4066 dcbd d9f4 c1be 6ec9 8abd
00000070: a23a de3d aa11 02bd b250 b5bd a1df 5cbe
00000080: c05a 1cbf b72c b5be 155a 4d3d 6196 aebd
00000090: 884e c0be 53af a43d a41f 8cbd 211e a03d
000000a0: 3bed 9e3e c16c 57bf e10c 3ebf 45dc c7bd
000000b0: 8165 aebd 5ca2 9ebe 5071 873d af8c d3be
000000c0: 5212 c3be 928c fdbd ba35 27bf fafe b83d
000000d0: 7b1b bc3d d193 63be 5259 5cbf cbdb ee3d
000000e0: 61a1 2bbd bfe8 06bd cbd5 b6be 3371 72bc
000000f0: c54b 853e c07c 79be cc30 b23e d610 bc3e
00000100: 68df 01be ac41 a5be 200f 05bf 23fc bb3e
00000110: 0918 cd3e c7f0 b23e 03ca b1be d8ab dabc
00000120: 80f7 d33c 2c15 20be 1ae2 613e a56b 953e
00000130: 2cbc 83be 11fa 493c 5c76 8ebe ec85 993d
00000140: 4ed0 fc3d d83e 893d 2158 eebe a49a 21bf
00000150: 5878 713d 5fd9 8abd 8863 29bf 52d0 493e
00000160: 530b 9cbd bccd 97bf 7070 aabc f49f d53c
00000170: c936 16bd ca31 13be 4919 97bd 17ee 49bf
00000180: 9ef5 093f be95 c2bd 0cd7 873e 766f 44be
00000190: c5cc 8abe 3e4f 703e cfa5 f53d a47b 93be
000001a0: 5f23 933e 7ded 0e3e c2f3 f13d 7b17 52bc
000001b0: 6a89 da3e e4a2 8c3e b042 f9bd 3539 e03c
000001c0: 2e52 283d c2f5 9ebf 0500 84be 64a6 aa3e
000001d0: 329e 663b cf68 3abe 5459 91be 8031 66be
000001e0: f0b8 2cbf e6e0 58bd 72e6 bdbd 7fe3 4cbf
000001f0: 4534 c7be 179c d63c 6a09 e73d 6a3e e0bd
00000200: 9b3a 8dbe e1b5 8dbe 20c8 743c 7e73 ac3d
00000210: 373c b33d 1d26 4cbe 1d86 163e 405f 00be
00000220: 645e 47be 2949 cd3d 1693 8c3d 046c cbbd
00000230: e54e 45bf 5abe 84be ed85 2c3e e59a 1f3e
00000240: 6aa7 5abe e8ea 57be 626d c73e 3da1 a1bb
00000250: 5b82 6dbe 793a 98bf 433f 3b3e 1305 c4be
00000260: ab13 103f 0e2c ef3e 015e ecbd 2e0c 173d
00000270: eadb 5ebe a337 bcbe 83ef c3bb c580 c9be
00000280: 0aad cbbe 38f7 c03e c466 c8bc ff66 8ebe
00000290: f878 7f3e 8369 823e db84 19be e474 aabc
000002a0: 5b32 43be eda7 08bf 476c d03e dc02 35bf
000002b0: 0f45 11be f301 743e f41f 653e 7515 04be
000002c0: 173e d93d 5059 d8be a6cc 983d f2b9 123e
000002d0: 864c e3bd 2949 763d 5c44 e23d 9bc1 bb3e
000002e0: a46d 7b3e a862 913e 29e8 32be 1798 d8be
000002f0: 95f2 9cbd 1bb4 6c3e 52d4 e83d c263 213e
00000300: 7a67 113e 4bb6 5e3d 8cf4 163e a37b 16be
00000310: 2cf6 2937 de64 6a3d ec56 61be 615a 023e
00000320: e0a1 d8bc f0ef a03c fc35 fbbc 07bb ad3d
00000330: ea0b a2bc 0e46 2ebd 0499 c2be 8078 b4bd
00000340: 53ea 08be 50d6 3bbe 8d85 01be 7f4d d0bb
00000350: aba9 b8be af7f 19bd c5a0 0ebe e741 16be
00000360: 0793 ffbd e95f 9fbb d7f2 8cbe f3b2 883d
00000370: cda2 0b3d 465e bd3d 2a7b e73c 038b 17be
00000380: 9ed4 25bd 91da 223d 0a37 c1bd 2bca 9e3d
00000390: 41b6 793e 06e5 a23d df21 b63c 4367 18be
000003a0: 726c 29be 1b09 173c 7c4a 6dbd fe95 c6bd
000003b0: ab99 7a3d 849d 4bbe 55af 7e3d 9d36 8bbe
000003c0: b174 003d 7342 15be af82 073c c6fa fe3c
000003d0: 1806 20be f286 c23d c7be 3ebd 2a22 46bd
000003e0: 3e89 30be 0259 8abd 51df 80bd 5c95 64bc
000003f0: 6715 c03c b74f c8bd 4fb4 303e bc65 063e
0.06441102 -0.042846695 0.26675603 -0.12983057 -0.13864125 -0.30960774 -0.143027 0.12875557
-0.20839742 -1.6988362 -0.18447621 -0.7119548 0.6373976 -0.47086033 0.13144182 -0.032723103
-0.0029591399 -0.5676338 0.2638031 -0.37210172 0.21772628 -0.035565395 -0.1478127 -0.161051
-0.21402095 -0.1076169 -0.37882116 -0.06776701 0.10851027 -0.031755127 -0.08853282 -0.21569683
-0.61075974 -0.35385677 0.050134737 -0.08524776 -0.37559915 0.08041253 -0.068419725 0.07818247
0.31040367 -0.8415032 -0.742384 -0.0975881 -0.08515454 -0.30983245 0.066134095 -0.4131827
-0.38099915 -0.12380327 -0.65316355 0.09033008 0.09184929 -0.22224356 -0.8607379 0.11663016
-0.04190195 -0.032936808 -0.35709986 -0.014797497 0.2603437 -0.24363995 0.34802854 0.36731595
-0.12682879 -0.32276666 -0.51976204 0.36715803 0.400574 0.34949324 -0.34724435 -0.02669327
0.025874853 -0.15633076 0.22058907 0.2918369 -0.257295 0.012327687 -0.27824676 0.07496247
0.123444185 0.067014396 -0.46551612 -0.6312659 0.05895266 -0.067797415 -0.661675 0.19708374
-0.076193474 -1.185966 -0.020805568 0.026077248 -0.03667334 -0.14374462 -0.0737787 -0.7887892
0.5389041 -0.09501217 0.26531255 -0.19183144 -0.27109352 0.23467728 0.11994516 -0.28805268
0.28737924 0.13957782 0.11814071 -0.012822981 0.42682964 0.27468026 -0.12170923 0.027371028
0.041093998 -1.2418749 -0.25781265 0.3333007 0.0035189507 -0.18204044 -0.28388464 -0.2247982
-0.6746969 -0.052948855 -0.092724696 -0.8003463 -0.38907066 0.026197476 0.112810925 -0.109494045
-0.27583775 -0.27677825 0.014940292 0.08420466 0.087517194 -0.19936414 0.14699598 -0.12536335
-0.19469601 0.1002372 0.06863992 -0.09932712 -0.7707351 -0.25926477 0.16847964 0.15586431
-0.21352926 -0.21085703 0.3895064 -0.004932551 -0.23194258 -1.1892844 0.18285851 -0.3828512
0.5628001 0.467133 -0.11541367 0.03687685 -0.21763578 -0.36761197 -0.0059794798 -0.39356056
-0.39780456 0.37688613 -0.024463065 -0.27812955 0.2494849 0.25471124 -0.14992087 -0.02080769
-0.19062178 -0.53381234 0.4070761 -0.7070749 -0.141865 0.23828869 0.2237547 -0.1289881
0.10607546 -0.4225564 0.074609086 0.14328745 -0.1109858 0.060128365 0.11048195 0.36671147
0.24553543 0.2839558 -0.17471375 -0.42303535 -0.07663456 0.2311558 0.11368622 0.15760711
0.1419963 0.054373067 0.14741725 -0.14695601 1.0130501e-05 0.0572251 -0.22005814 0.1272979
-0.026444376 0.019645661 -0.03066539 0.08482938 -0.019781072 -0.042547278 -0.38007367 -0.08812046
-0.13370638 -0.18343472 -0.12648602 -0.0063568945 -0.36066946 -0.037475284 -0.13928516 -0.14673577
-0.12479215 -0.0048637283 -0.27529022 0.06674757 0.034090806 0.09246497 0.028256971 -0.14799123
-0.04048597 0.039759222 -0.09434326 0.07753404 0.2438593 0.07953839 0.022232948 -0.14883141
-0.16545275 0.0092184795 -0.057932362 -0.096965775 0.061181705 -0.19884306 0.06217893 -0.27190104
0.031361286 -0.1457613 0.0082709035 0.031125437 -0.15627325 0.09498395 -0.04656866 -0.048372425
-0.17239854 -0.06755258 -0.06292594 -0.013951626 0.023447705 -0.097808294 0.17256282 0.13124746

context_backbone.layers.0.0.bias f4 [64]
00000000: d464 363e 1c06 a53d 517a a7bc 1c81 8db9
00000010: 9fb8 e43a 2d6d 6dbd 37ea 9ebc 0af0 993c
00000020: 2089 8fbd 0843 f2be f88a 6dbd 9eb8 7bbb
00000030: 1b2b 1c3e 9fb6 e7bd 03ed bb3c 1520 6dbe
00000040: c613 153d aeea 753e fbac a9bd 24dc 9bbd
00000050: e598 eb3d 6e1d fa3c 68ae 63bd fea6 9abd
00000060: 81e0 513d bb25 49be aeaa 933d 110d e83d
00000070: bab5 69be 19b9 98be 1c45 fe3c bd6c 44bc
00000080: c0fb b23c ffd8 e0bb 93f2 6a3d 87c5 17bc
00000090: 8694 c53c e173 84bd 1cdc 913d 0e5a 963d
000000a0: 6d7c ccbd 0803 3d3d 1987 4bbd 2eff 54be
000000b0: f7fe 85bd bba5 0e3d 4962 73be fd9e 86bd
000000c0: 70c1 8cbc b020 eabd 0375 c93d 068c b9bd
000000d0: c7c4 4e3d 2e5b bfbd db39 1bbd 90f4 36bb
000000e0: ef70 05bd 4459 61be f5db e13c 829c 22bd
000000f0: d46a a4bd a3a0 4ebe 109d d63c c6d5 70bd
0.178119 0.08057806 -0.020444067 -0.0002698981 0.0017450041 -0.057965446 -0.019398792 0.018791217
-0.070085764 -0.47316766 -0.05799386 -0.00384096 0.15250818 -0.11314129 0.022940164 -0.2315677
0.03639581 0.24015304 -0.082849465 -0.07610348 0.11503772 0.030531611 -0.05558625 -0.075513825
0.051239494 -0.196433 0.07210289 0.11330617 -0.2282323 -0.29828718 0.031038813 -0.011988816
0.02184856 -0.0068618055 0.057360243 -0.009263403 0.024118673 -0.06467415 0.07122061 0.07341395
-0.0998467 0.04614547 -0.049689386 -0.20800468 -0.06542771 0.03482602 -0.23767962 -0.06573293
-0.017182082 -0.11432016 0.09836771 -0.090599105 0.05048063 -0.09343563 -0.037896972 -0.0027916767
-0.032578405 -0.22006708 0.027570704 -0.03970004 -0.08028188 -0.20178466 0.02619794 -0.05879762

context_backbone.layers.1.0.weight f4 [64, 64, 3]
00000000: 0edf 99bd fea9 0fbd 56fa 823d ca86 47bd
00000010: 70a9 f9bc d767 58bb c397 833d 8021 6a3d
00000020: ae23 a1bc d14e bfbd 6161 bbbd 012a 65bd
00000030: 831e 4c3d c062 213d 6c5a 9e3d 4530 12bc
00000040: a814 54bd 80a1 ed3c d01a 063d 8527 863b
00000050: 2074 61bd 7b9f 32bd 8dd1 963b 6ae5 c13a
00000060: ea87 04bc c416 b0bc eaac 21bd ac81 243c
00000070: a904 64bd 15d1 11be e3e1 56bd 9ae6 8bbd
00000080: f18e e8bd afcb 333d 9e62 62bc efd3 563d
00000090: 4b09 79bd 3c32 f4bc f3f5 86bb 551f c3ba
000000a0: 81a3 52bd 324b fbbc 3dc0 85bd e4e6 8a3c
000000b0: 6b3b 223d da38 973c 4917 babc 3042 92bd
000000c0: 4ae4 883c 3721 1d3d 20e8 7dbd ead5 3d3d
000000d0: e179 443d 23c9 12bd 5679 e7bd e558 a7bd
000000e0: e124 1e3d 261f 1dbd 8d3b e7bd 5ad9 2c3d
000000f0: b257 0dbd 8272 cbbc dcdc 3abb 7596 9d3d
00000100: d399 f4bc 0639 9fbd 8cb3 b9bd 7809 253d
00000110: 0339 47bd 9f6c 63bd 992b ecbd c4a2 8dbd
00000120: 76c4 8f3d 9cc9 2fbb 13c4 dd3d b723 b7bc
00000130: 1ec8 4b3c ff47 cd3c c69d af3a e88b 88bd
00000140: 91d3 d7bc 3cd9 753c ee38 c03c efd9 5cbd
00000150: 8467 40bd d577 9dbc 5a58 22be 05b5 733d
00000160: be1b 523d ef4e 3dbd ced3 52bd 2f93 c339
00000170: 375a 553d cbd7 083b 64f9 32bd 3b8a dfbd
00000180: acaf d03d bb71 593c e119 0a3d aaf6 91bc
00000190: d290 3abd 5798 b9bc 2b58 32bc 1682 493c
000001a0: b549 e13c b7a0 6dbd 5a68 c4bc b100 a83b
000001b0: 6dfe abbc 00dd 12bd 1b8c 2c3d a94a cb3c
000001c0: b3fe 05bd 6ce0 cabd 6419 053c 3d72 71bd
000001d0: 853b 003d 8026 0f3d 1fa0 333d 0971 323d
000001e0: 47a0 0cbe 53b6 e4bd a8be 98bd df40 8a3c
000001f0: 7751 41bd a848 b1bc cb5d 4c3c edaa 0c3d
00000200: d1e5 81bc 20d3 423d 9031 83bd b85e bf3c
00000210: f81f eabd c0b4 eebd fa6d ddbc 8ae0 3cbd
00000220: 0823 b83c bdad d73d 440f 8abd 0a2d c8bd
00000230: 0a4b 16be 3622 cbbd 2ea8 bebc 1fa7 b0ba
00000240: f4d5 0ebc 81a4 683c 4a00 943d b9b5 c33c
00000250: 29a2 e0bd 8732 5dbe ab33 06bd b88f ffbc
00000260: f36c 7dbc dbf2 0abc d393 9fbd 0bec cabc
00000270: 2142 11bd 5943 3abd 821b a53c 8740 c1bd
00000280: 96cc 6ebd 88ca 003e 2c8d 933d aeb9 5bbb
00000290: 1043 f23c 342a 7a3d 311f d5bc 98f8 9d3d
000002a0: ad43 4b3c 1ee2 4cbd c560 333b f42b 64bd
000002b0: 55fe b4bd 0f0c 91bc 54ec b6bc 0611 863c
000002c0: 7314 9a3c e457 ffbd de3f 92bd fbd8 023c
000002d0: 6586 6d3d 9301 f2bc 9a79 6ebd cce4 3d3d
000002e0: 0036 03bc fd24 a33d 6a26 6cbd 7df2 eabd
000002f0: 4932 adbc 59e0 693d 5038 c2bc 69ef 863c
00000300: a970 df3c 9ac7 4b3d 6ee8 e33d e36e afbb
00000310: d1d9 d53c 1323 9bbb e6d4 21bd 4500 173d
00000320: 7782 b43d a71c af3b d1ee 7cbd 5c4a 093e
00000330: 39ef 1abd 1545 0abc 6a9b 05be 4714 8fbd
00000340: 50cd 0b3e 88b7 aebe 48f0 a6bd 1d0c 04bc
00000350: d14e 88be 44f7 bfbd 1112 cb3b 1872 ddbd
00000360: ce3b 0f3d a023 b6bd c7d0 42be b81f 233e
00000370: 5b86 6abd d6df 03bc 2d40 0dbe 6775 5ebe
00000380: 90a4 56be 7cea 19bd 148f 793d ae24 b03d
00000390: 81ca 733d e2cc 143e f5d2 3cbd f6cc 11bd
000003a0: ae81 01be ea24 dabb c91f 073d 5378 983d
000003b0: d6dd bb3b 514c 13be 1579 a43b b3c8 b6bd
000003c0: 86c1 b53a 1c6b 39bd 98d0 7abd c826 f13d
000003d0: 659c 9b3d 2932 463c 327b 2ebd 0527 3bbe
000003e0: 489e 43be 5668 bcbc 57ef edbc 38a0 89bd
000003f0: 813b 393e dd36 1cbd 7f10 bd3d 6b2a 793d
-0.075132474 -0.035074227 0.06395404 -0.04871253 -0.030476302 -0.0033020878 0.064254306 0.057160854
-0.019670334 -0.09341205 -0.09149433 -0.05594826 0.049833786 0.039400816 0.0773209 -0.008922641
-0.05177751 0.029007673 0.032740414 0.0040940666 -0.055042386 -0.043609124 0.004602617 0.0014793102
-0.008089045 -0.02149523 -0.039471544 0.010040682 -0.055668507 -0.14239915 -0.052461516 -0.06831093
-0.11355389 0.04389542 -0.0138174575 0.05244821 -0.060799878 -0.02980911 -0.004118675 -0.0014886657
-0.05142546 -0.030675504 -0.06530807 0.0169558 0.039607447 0.018459726 -0.022716181 -0.071415305
0.01671042 0.038361754 -0.06198895 0.046346582 0.047967795 -0.03583635 -0.1130244 -0.08171252
0.03860939 -0.038359784 -0.11290655 0.04219947 -0.03450746 -0.024834875 -0.002851299 0.07694713
-0.029858505 -0.07774548 -0.09067449 0.040292233 -0.048638355 -0.05552351 -0.11531753 -0.06915811
0.07019894 -0.002682305 0.10828414 -0.022355897 0.012437848 0.025058744 0.001339846 -0.0666731
-0.026346 0.015005406 0.023464646 -0.053918775 -0.04697372 -0.01922218 -0.15854016 0.059498806
0.05129599 -0.046217855 -0.051471524 0.0003730296 0.05208799 0.0020880576 -0.04369487 -0.10915037
0.10189757 0.013271744 0.033716086 -0.017817814 -0.045548268 -0.02265565 -0.010885279 0.012299081
0.027500967 -0.058014598 -0.02397554 0.0051270355 -0.020995343 -0.035855293 0.042125802 0.024815874
-0.032713603 -0.09906086 0.008123729 -0.058946837 0.031306762 0.034948826 0.043853875 0.04356483
-0.13733016 -0.11167588 -0.0745824 0.016876636 -0.04719683 -0.02164109 0.012473534 0.034342695
-0.015856655 0.047564626 -0.06405938 0.023360595 -0.11431879 -0.11655569 -0.02702998 -0.046112575
0.022477642 0.10531185 -0.06741193 -0.097742155 -0.14677063 -0.099186346 -0.023273554 -0.001347754
-0.008718003 0.014199377 0.07226618 0.023890363 -0.109684296 -0.21601306 -0.03276412 -0.03119646
-0.01546787 -0.008480753 -0.07791867 -0.024770757 -0.035463456 -0.045474384 0.020154718 -0.09436136
-0.058300577 0.1257726 0.07204661 -0.0033527422 0.029572994 0.061075404 -0.02601585 0.07713431
0.012406272 -0.05002033 0.0027370912 -0.05570598 -0.088375725 -0.017705945 -0.022329487 0.01636554
0.01880858 -0.12467936 -0.07141088 0.0079863025 0.057989497 -0.029541766 -0.058221437 0.046360776
-0.00800848 0.07966039 -0.057653822 -0.11472032 -0.021142142 0.05709872 -0.023708493 0.016471582
0.0272754 0.0497509 0.11128317 -0.005353795 0.02610484 -0.004734406 -0.039509676 0.03686549
0.08813947 0.005343992 -0.06175119 0.13407272 -0.037825797 -0.008439322 -0.13047567 -0.069862895
0.13652539 -0.34124398 -0.08151299 -0.008059529 -0.26622632 -0.09373334 0.006197222 -0.10812777
0.034969144 -0.08893514 -0.19024955 0.15930068 -0.057257038 -0.008048972 -0.13794012 -0.21724473
-0.20961213 -0.037577137 0.060927466 0.08600746 0.059519295 0.14531282 -0.04609962 -0.035595857
-0.12647125 -0.0066572325 0.032989297 0.07444825 0.005733232 -0.14384581 0.005019317 -0.08924999
0.0013866879 -0.045268163 -0.061234087 0.11774975 0.07598189 0.01209692 -0.042597957 -0.18276604
-0.19103348 -0.02299897 -0.02904479 -0.067200124 0.18089105 -0.03813826 0.09231662 0.06083147

context_backbone.layers.1.0.bias f4 [64]
00000000: eb30 763d 3969 0d3d 416d d93d ea2f b1bb
00000010: 47c3 84bd 58f3 e5ba 2c29 423c 13dc b03d
00000020: 4a52 dbbd 03c8 83bd a756 e2bd 1963 df3d
00000030: 2b2f ce3e f5ca d13d 9eea 543d 38cf 99bd
00000040: ec71 89bd e1b3 013d 9d98 c5bd afec a6bd
00000050: 9bed 593a 7b12 e2bc 3c9d fabc 042d cdbd
00000060: 5a2f d5bd 79ee a6be 9cb7 b23d 460f 083e
00000070: 30b2 963d 1d84 97be 2aa3 60bd 3047 0bbd
00000080: b33c 613d 8002 72bd 38e1 bb3d 283c 79bd
00000090: 4ff9 343d 99b3 07bd 8de5 973d abd0 8bbe
000000a0: 88ac f5bd 165e 1fbc a361 8ebd 482c 143d
000000b0: d906 2cbe 1271 e0bd 8a0e 87be 8b63 113d
000000c0: 68cd 0abc 5dd4 b53d 7ede ffbc ee42 87bd
000000d0: cdc8 d33d 3e8f 1e3d 6c78 b23c 7407 44bd
000000e0: 62b5 9abd 2bd7 2dbc 4afc 8cbb cc67 0a3e
000000f0: 0699 29be 5cdf d6bc 0166 96bd 0483 273d
0.060105246 0.034524176 0.10616542 -0.005407323 -0.06482559 -0.0017543836 0.011850636 0.08635726
-0.10709055 -0.064346336 -0.11051684 0.10907573 0.4027036 0.10243789 0.05198156 -0.07510227
-0.06711182 0.031665687 -0.09648249 -0.081506126 0.0008313299 -0.027596703 -0.030592553 -0.10018352
-0.10409422 -0.32603815 0.08726427 0.13287076 0.07358205 -0.29592982 -0.054843105 -0.034003437
0.054989528 -0.059084415 0.091738164 -0.060848385 0.04418307 -0.033130262 0.0741683 -0.2730764
-0.11995798 -0.009727022 -0.069522165 0.036175042 -0.16799487 -0.109590665 -0.2637828 0.035495322
-0.008471824 0.08878396 -0.031234022 -0.06604563 0.10341034 0.038710825 0.021785937 -0.04785867
-0.07554127 -0.010610382 -0.004302536 0.13516158 -0.1656228 -0.026229553 -0.073436745 0.04089643
