models/3.7.single_token_pos.pth (torch, 194379 bytes, 9 tensors)

char_embeddings.weight f4 [150, 64]
00000000: 0000 0000 0000 0000 0000 0000 0000 0000
00000010: 0000 0000 0000 0000 0000 0000 0000 0000
00000020: 0000 0000 0000 0000 0000 0000 0000 0000
00000030: 0000 0000 0000 0000 0000 0000 0000 0000
00000040: 0000 0000 0000 0000 0000 0000 0000 0000
00000050: 0000 0000 0000 0000 0000 0000 0000 0000
00000060: 0000 0000 0000 0000 0000 0000 0000 0000
00000070: 0000 0000 0000 0000 0000 0000 0000 0000
00000080: 0000 0000 0000 0000 0000 0000 0000 0000
00000090: 0000 0000 0000 0000 0000 0000 0000 0000
000000a0: 0000 0000 0000 0000 0000 0000 0000 0000
000000b0: 0000 0000 0000 0000 0000 0000 0000 0000
000000c0: 0000 0000 0000 0000 0000 0000 0000 0000
000000d0: 0000 0000 0000 0000 0000 0000 0000 0000
000000e0: 0000 0000 0000 0000 0000 0000 0000 0000
000000f0: 0000 0000 0000 0000 0000 0000 0000 0000
00000100: f6e7 1abf ae69 6a3f efde 953f 7d57 8c3f
00000110: 9d2d 4dbf 0123 3740 c25c 473e b202 773e
00000120: 3ce3 71bf 82dd f9be 0f68 fabe 1d04 19bf
00000130: 1910 65bf f1dd a83f 89a7 f03e 8781 9f3f
00000140: 726a 23be fd77 313f 7168 2bbe e3ed 7b3e
00000150: 1cc7 103f f4cc b8be a033 f93e 360d 683d
00000160: 3499 983e 5ece da3f da7f 00c0 8782 efbd
00000170: f82c 8abf 5d76 40bf c20a 903d d365 083f
00000180: f0cc 543f 6ab8 aebf 7b2a 24bd 6c64 1d3f
00000190: 39ff 23c0 b382 adbf 2044 c5be b8a3 8fbe
000001a0: e64f 793e c222 1f3f b5fd 773e 9104 19be
000001b0: 7445 453e 99cf 44bf 400e 383f 90cc 33bf
000001c0: 562f 023e afa5 18c0 f42f 43bf 61c0 bdbe
000001d0: 46db bd3f 2273 30be 6747 31bf 1889 093f
000001e0: 39cb 77bf 7e9f f8be 5151 e93f 041b ae3d
000001f0: 3eff 65bb f95d 863f f97f 843e feb5 7a3f
00000200: 7cb2 9dbe 7b3e bcbd b337 ffbc f9ab 2f3f
00000210: 82f3 d13f f0e7 d83e 8a14 e43f e100 5ebf
00000220: c02b aebd d0dd a13e 32d0 41bf dd92 59bf
00000230: 2623 833e 1c6e a2be fd2f 35be c114 7f3e
00000240: a49c a9be fe11 b4bb bd4e 0f3f d10c 943f
00000250: e8cc 713e 3f64 153f b582 133e b526 bebe
00000260: 1a7e ab3e d4f6 f4be 94fc eabf c5ee a5bd
00000270: de9a 87bf 4aeb 3f3f 43cd 1f3f 45a4 1e3f
00000280: edae 2f3f fc46 99be 3ae1 d03e 260c c53d
00000290: d06a 843f 2171 b6be 5a87 383f db56 fd3d
000002a0: f558 233e 1fca b43e 703a e3bd 0e2b 333f
000002b0: 65be 06be fd01 8cbe 980f 223e ad36 d9bf
000002c0: 85d8 0fbe d85f c6be e2fd e0bf 21bd 1dbd
000002d0: 4aff 843f ef0d 743e 9f41 903f 4ef0 9a3f
000002e0: bbd3 9bbf b962 10be 9e96 803f 2d78 b3be
000002f0: 8f3e 8e3e c820 36bf 8cf3 83be 99ba c9bf
00000300: d71e 05bf 82af 8d3f 65e2 fa3e b342 853e
00000310: 00af a33e 3ab2 de3e 65f4 123e 3fa5 883f
00000320: 6a9d b1bd cb85 e4be 1530 363f 8a45 c93e
00000330: 710c b23e b73c a0bf ef74 ac3f 3acc 08be
00000340: e2dd 983f 0115 c13c 7afd 753f 90f8 e83e
00000350: d7b6 99bf fa54 1c3f ecc2 cebe f8bb 79bf
00000360: 7172 483f 3d70 8c3f e99a 34bf b6ef f83d
00000370: 802d 16bd e01f bd3e ba2f 17bf 2edf 2dbd
00000380: 5e32 bcbc 8c72 0640 19a0 143d 5b88 2f3f
00000390: e989 65be 0759 f83e f74d 653d 70da 96bf
000003a0: a208 a8be 5711 b2be 7f6b dfbe d9f9 f03e
000003b0: 8703 00bf cccc 373f 8e46 783f bf24 ddbf
000003c0: bf9a 7ebf 95e2 c0bf 5203 b1be 0489 b0bf
000003d0: 488d 0d40 61f9 aebe 0f35 053e 9955 18bd
000003e0: c98b 8fbe 82c1 493f 2261 263f 6dcd fcbe
000003f0: c75f 13bf 5254 78be fa58 8e3f 4f82 023f
0.0 0.0 0.0 0.0 0.0 0.0 0.0 0.0
0.0 0.0 0.0 0.0 0.0 0.0 0.0 0.0
0.0 0.0 0.0 0.0 0.0 0.0 0.0 0.0
0.0 0.0 0.0 0.0 0.0 0.0 0.0 0.0
0.0 0.0 0.0 0.0 0.0 0.0 0.0 0.0
0.0 0.0 0.0 0.0 0.0 0.0 0.0 0.0
0.0 0.0 0.0 0.0 0.0 0.0 0.0 0.0
0.0 0.0 0.0 0.0 0.0 0.0 0.0 0.0
-0.60510194 0.91567504 1.1708659 1.0964199 -0.80147725 2.8615115 0.19468978 0.24122122
-0.9448736 -0.4880181 -0.48907515 -0.597719 -0.8947769 1.3192731 0.4700282 1.2461404
-0.15958574 0.6932371 -0.1673906 0.24602465 0.56553817 -0.36093867 0.486722 0.056653224
0.29804385 1.7094228 -2.0078034 -0.11694818 -1.0794973 -0.7518061 0.07033302 0.5328037
0.8312521 -1.3650029 -0.040079575 0.61481357 -2.5624526 -1.3555511 -0.38528538 -0.28054595
0.24346885 0.6216241 0.24217875 -0.14943148 0.19264776 -0.7687927 0.71896744 -0.7023401
0.1271337 -2.3851125 -0.76245046 -0.37060836 1.4832542 -0.1723142 -0.69249576 0.53724813
-0.9679447 -0.48559183 1.8227941 0.085012466 -0.0035094763 1.0497428 0.25878885 0.9793395
-0.30800235 -0.09191605 -0.03115449 0.68621784 1.6402438 0.42364454 1.7818768 -0.8672009
-0.085044384 0.31614542 -0.75708306 -0.8498972 0.25612754 -0.31724632 -0.17694087 0.2491026
-0.3312732 -0.005495309 0.5597952 1.1566411 0.23613322 0.5835609 0.1440533 -0.37138906
0.33494645 -0.47844565 -1.8358331 -0.08102182 -1.0594137 0.749684 0.6242258 0.61969405
0.6862629 -0.2993697 0.40796834 0.09621458 1.0345097 -0.35633186 0.7208153 0.12370082
0.15951903 0.35310456 -0.110951304 0.6998757 -0.13158567 -0.27345267 0.15826261 -1.6969811
-0.1404744 -0.38744998 -1.7577479 -0.038510446 1.0390408 0.2383344 1.1270026 1.2104585
-1.217399 -0.1410016 1.0045965 -0.35052624 0.27782103 -0.7114377 -0.2577175 -1.576007
-0.5200018 1.1069186 0.4900085 0.2602745 0.31969452 0.4349535 0.14351042 1.0675429
-0.086726025 -0.44633326 0.7116712 0.39310867 0.34775117 -1.2518529 1.3473185 -0.13359156
1.1942713 0.023569586 0.960899 0.45502138 -1.2008923 0.61067164 -0.4038309 -0.9755244
0.78299624 1.0971752 -0.70548874 0.12155096 -0.036664486 0.3693838 -0.590572 -0.04244917
-0.022973236 2.1007414 0.036285494 0.68567437 -0.2241589 0.48505422 0.055982556 -1.1785412
-0.32819086 -0.34778854 -0.436367 0.4706562 -0.5000538 0.7179687 0.9698266 -1.7276839
-0.99454874 -1.5069147 -0.34572846 -1.3791814 2.2117481 -0.34174636 0.13008521 -0.037191007
-0.28036335 0.78810894 0.6499196 -0.49375477 -0.5756802 -0.24250916 1.1120903 0.50980085

backbone.layers.0.0.weight f4 [64, 64, 3]
00000000: 2fca 8a3e 602b 893c 3e11 583d ea67 043f
00000010: 8e5c 003f 5b32 91bd 908e 5b3e 3cdc b03d
00000020: 8504 07be f27c d7bd de65 bb3d 68e8 6cbd
00000030: b8c5 81be 6700 393e 100d 10be 9706 70be
00000040: 0081 c33d bd32 e53c e435 07bf 9379 e8bd
00000050: 6f13 31be 7a84 4bbd c67b 45be 4218 0d3e
00000060: 542f 38bc 80e5 2bbe 7b82 7d3c f7e7 f43c
00000070: 5522 703e b7ca 4bbe f26c 953e 874b 82be
00000080: 0c44 9ebe 4836 8f3e 4f28 b73e 24ac 8d3e
00000090: 74b3 b0bd e7ea 333d 3760 a03e 1fc9 dcbb
000000a0: e5b8 b93d 6b91 17be 1304 edbc 85a3 613e
000000b0: a554 09bc f9f9 71be 71e9 893d 91e8 bbbc
000000c0: cbbc 943e 629f a9be cba5 453e 3add 4c3e
000000d0: 197c 8e3e 95a4 29be 137b 85be d00f 50be
000000e0: d37f 83be 6d7e 41be 0cbd a83d 4ea5 463e
000000f0: 16a2 f3bd 308a 62bd 095f 003e 5311 b0bc
00000100: c99c 3fbd 8a34 8abe 8dd1 7c3e cb59 ae3d
00000110: 4e4a 76bd 1be4 763b 93fb 5b3e b853 3f3e
00000120: 517b 4ebe a5e7 3e3d 0924 79be 68c4 45be
00000130: 302e 1dbe 8787 b8be 3943 463e 3595 15be
00000140: 7f44 ddbd dc77 15bd 5f13 ccbe 0eda aabe
00000150: 03e7 8f3e f27a 86be 26a8 ca3e ace7 703c
00000160: a58a 74be 5a72 bebe 49e2 243e 3693 103e
00000170: 6574 eabe a06b 1f3d 9225 afbd 7db3 2bbe
00000180: eadb e1be 4e42 6c3d 233d b6be a76c b03d
00000190: 7f62 78bd aeb1 d2be 8c01 dbbe d7f8 f23d
000001a0: 74ca ae3d d76f 803e fd22 c9be 0794 debd
000001b0: 942e 78be 0323 0f3e 5097 f53c 4db7 de3d
000001c0: 494c bf3e dc87 6a3e d078 d4bd 9ffd 853e
000001d0: 98d2 77bc 3ac1 a7be b6e3 a23e a7b8 d53e
000001e0: d813 6ebd 4de7 9c3e 774e e23e c3d1 99be
000001f0: 7dc3 4c3e f0b3 d9bd 9798 2bbe c2d3 753e
00000200: 9c2b 9bbe bb9a b73e f686 55be 1977 cebe
00000210: 216c 813d 25fb 81bd 936e 473d d0c4 ed3d
00000220: 7be1 6fbd 2c6b b7be f2f7 1b3e 7767 d8be
00000230: 5fee dcbe fe22 f13d 5ea1 bfbd 108e 413e
00000240: b47e 74be 9231 853e fc03 393e 44db 313e
00000250: 9794 f33e a9af 0f3e 35b2 7b3e f687 d23d
00000260: 2cb9 bc3e e50b 8b3e 09ba 203e b1c3 163c
00000270: 412a 53bd 1435 ad3c b77c c5bd f175 513d
00000280: 8a63 65bd d41a b33d c1ad d0bd 1134 30be
00000290: 0901 97bd be8b a23c 2b4e 27be a61a bcbe
000002a0: 7fc2 463c c790 6a3e f5bd 4d3f 6696 16be
000002b0: 4168 23bf c8c1 a7be a123 563e 29b7 d9be
000002c0: d8a0 33be 1429 823e 3d85 46be fa60 d83e
000002d0: 6aac 70bd edcc 123e f56f 8f3d ec6f 333e
000002e0: 7dee b9bd 108c 7b3e 1fa1 36be d04f 883b
000002f0: 4599 873d 6df7 a73e d4d6 fd3d 7b12 d53e
00000300: 65a8 1cbe db10 f6be 67b6 88be 9aa1 f53d
00000310: 5a4d 4bbd ebf3 1fbe 24f9 3ebe d75d 9cbd
00000320: e161 5abd 9dfa 763d 8cf5 acbd 0278 583e
00000330: 703d bcbe a2ac 49be eb81 523d b2d5 edbc
00000340: c80b fcbd a92d b1be 9a47 00bf 5e34 a73e
00000350: 6a77 773d 7685 713e f617 dd3c c661 b03e
00000360: 3107 b13d 05b0 8fbe 249f 583e 2988 aabe
00000370: 210b 98be 3250 923d b2e2 1d3d f7f2 303e
00000380: 93c0 d93d f14d 8e3c 3023 443e 4fda 02be
00000390: 280a 4cbe 6403 973e 803a eebe 785b 803e
000003a0: 397f 3dbb 2144 3fbd ee8b 18be 6fc4 60be
000003b0: 9f61 913c 9308 12bc fcb9 a3be 572f 4e3d
000003c0: cf12 71bd 2d80 043e b3c3 9ebe c343 1fbe
000003d0: 5fea aebe bec8 463e db18 80bb d0d9 8b3e
000003e0: 9394 f1be 0c07 bebe bd82 543d c9e5 7abe
000003f0: 3760 f9be 817c fdbe 8e87 babe 8a27 323e
0.2710738 0.016744316 0.05275082 0.5172106 0.5014123 -0.07089683 0.21441102 0.086357564
-0.13185318 -0.10521878 0.09150289 -0.057838827 -0.2534616 0.1806656 -0.14067483 -0.23440014
0.09546089 0.027978295 -0.52816606 -0.113513134 -0.1729257 -0.049686886 -0.19285497 0.13778785
-0.011241753 -0.16786766 0.0154730035 0.029895766 0.23450597 -0.19901548 0.2918468 -0.25448248
-0.3091129 0.279711 0.3577294 0.27670395 -0.08627978 0.043925192 0.31323406 -0.0067378427
0.09068469 -0.14801566 -0.028932607 0.22035034 -0.008381997 -0.23630513 0.067339785 -0.022938045
0.29050288 -0.33129412 0.19301526 0.20006266 0.27829054 -0.1656669 -0.2607046 -0.20318532
-0.2568346 -0.18895884 0.08239183 0.19398996 -0.1189615 -0.055307567 0.12536253 -0.021492636
-0.04678038 -0.2699321 0.24689312 0.085132204 -0.060129456 0.0037672583 0.21482687 0.1868428
-0.20164229 0.046607632 -0.24330153 -0.19313204 -0.1534965 -0.360409 0.19361581 -0.14607699
-0.1080408 -0.03649126 -0.3985853 -0.33369488 0.28105935 -0.26265675 0.39581412 0.014703672
-0.23881014 -0.37196618 0.16101946 0.14118657 -0.45791927 0.038921 -0.08552088 -0.16767688
-0.44113094 0.05768042 -0.3559352 0.08614474 -0.06064081 -0.41151184 -0.42774618 0.11863869
0.085347086 0.25085327 -0.39284506 -0.10868078 -0.24236518 0.139782 0.029979378 0.108748056
0.37362888 0.22903389 -0.10374606 0.2617006 -0.015125893 -0.32764608 0.31814355 0.4174244
-0.058124393 0.30645218 0.4420049 -0.30042848 0.19996448 -0.106300235 -0.16757427 0.2400656
-0.3030671 0.35860237 -0.20852265 -0.4032524 0.06319452 -0.0634673 0.048689436 0.11609805
-0.058564644 -0.35823953 0.15231302 -0.42266437 -0.43150613 0.11774252 -0.0935695 0.18901849
-0.23876458 0.26014382 0.18067926 0.173688 0.47574303 0.14031853 0.245797 0.10279839
0.36860025 0.27157512 0.15695967 0.00920193 -0.05155397 0.021143474 -0.09642928 0.05113787
-0.05600313 0.087453514 -0.10189391 -0.17207362 -0.07373244 0.019842025 -0.16338412 -0.3673908
0.012131332 0.2290679 0.80367976 -0.1470581 -0.63830954 -0.3276503 0.20912029 -0.42522553
-0.17541826 0.25421965 -0.19386764 0.42261487 -0.058758177 0.14335985 0.07003776 0.17523164
-0.09078691 0.24565148 -0.178349 0.004159905 0.06621031 0.32805958 0.12394491 0.41615662
-0.15298612 -0.48059735 -0.26701662 0.11993714 -0.049634315 -0.15620391 -0.18649727 -0.07635086
-0.053316 0.060297597 -0.08445272 0.2113953 -0.36765623 -0.1969476 0.05139343 -0.029032562
-0.123069346 -0.34605148 -0.50109255 0.3265714 0.060416616 0.23586068 0.026988965 0.34449595
0.0864395 -0.2806398 0.21154457 -0.33307007 -0.2969599 0.07144202 0.03854627 0.17280184
0.10632434 0.01737115 0.19154048 -0.1277859 -0.1992575 0.29494774 -0.46529007 0.25069785
-0.0028914942 -0.046695832 -0.14897129 -0.21949933 0.017746745 -0.008913177 -0.31977832 0.050338116
-0.058855828 0.1293952 -0.31008682 -0.15553193 -0.34163186 0.19412515 -0.003909213 0.27314615
-0.47183666 -0.3711475 0.051882494 -0.24501719 -0.4870622 -0.4950905 -0.36431545 0.17397895

backbone.layers.0.0.bias f4 [64]
00000000: 353b ddbe bdd3 a23d 38f3 edbe 0e98 11be
00000010: fc9c adbb 3546 713d 77af fb3d b3af 69be
00000020: 71dc 823d 5180 f43d 5a39 4cbf 657d ea3d
00000030: 7b70 ea3c 5140 3bbf 35f8 28be ef03 0abe
00000040: 7688 cb3d eef3 0c3e 38c5 11bf 4532 f33d
00000050: cbaa fe3d 3c79 b7bd 4938 febd 08f0 e33d
00000060: 2789 0dbd 9582 46bd 9022 9ebe 1822 ba3d
00000070: 3ead 523d f253 47be 10e8 a3bd 13da 0ebe
00000080: 03ab 35bd 0b66 d4bd 9749 97bc 74a9 8abe
00000090: 9f72 6abf 72cd 22bf d3a2 f63c 5848 973d
000000a0: bbc4 adbe c371 b23d 34f1 2dbc 9625 da3d
000000b0: c7c5 49bd 864e e8bd 762e efbc cc1f 413d
000000c0: 86b4 8d3d b8f1 48bf 86c7 45bf ef3b 36bc
000000d0: 17b4 d8bd 3c2a 08be 7cb7 003c 5053 25be
000000e0: ce45 53bd 6f69 67be bde1 2ebe fc13 823d
000000f0: 63aa 4cbe 752f ea3c 47b8 25bf 1a9f 903c
-0.43209234 0.07950542 -0.46474624 -0.1421816 -0.005298255 0.058904845 0.12289327 -0.2282093
0.06389702 0.11938537 -0.7977501 0.11449698 0.028618088 -0.73145014 -0.16500933 -0.13478063
0.09938137 0.13764927 -0.56941557 0.118748225 0.1243492 -0.089586705 -0.12413079 0.11129767
-0.034554627 -0.048464376 -0.30885744 0.09088534 0.051434748 -0.19465616 -0.08003247 -0.13950376
-0.044352543 -0.10371026 -0.018467708 -0.27082407 -0.9158115 -0.63594735 0.030106938 0.07386845
-0.33939156 0.087131046 -0.010616589 0.106517 -0.04926088 -0.11343102 -0.029196959 0.047149464
0.06919198 -0.78493834 -0.77257574 -0.011122688 -0.105812244 -0.13297361 0.007856246 -0.16145062
-0.051580243 -0.22598813 -0.170783 0.06351468 -0.19986872 0.028587082 -0.6473431 0.01765399

backbone.layers.1.0.weight f4 [64, 64, 3]
00000000: 1ce8 18bf a335 39bf 6285 943d 080d 5e3e
00000010: 9d7d 00be d681 553d a72c b4bb 439d a3bd
00000020: 2525 e9bd 0406 2c3e 3db0 263e 8310 51bc
00000030: 8f5f 5ebf 55d3 cc3d 9105 263e 8989 5ebe
00000040: 4c31 8cbd cd95 8abd 84db 1fbe 98aa ec3d
00000050: 8f6a 86be 8f59 0c3f 6294 0e3d ac5a b7bc
00000060: ce5c f6bd ee41 f4be 62f8 0b3e 4b1b a0bc
00000070: e09f 503e 682c a1be 98b2 7b3e 234f 9cbd
00000080: 3878 7f3e 93d5 5b3e f231 96be 1442 60bd
00000090: 47df d63d 251b 34bf b9c0 f2ba 7d88 7ebe
000000a0: 5c6b e5be ff75 8ebe 897b 8cbe 0c32 eebd
000000b0: ae3d babe f3de 9f3d f500 aebe 4498 6e3c
000000c0: b99a 523e da84 843e ffe2 2c3f 3b67 6c3e
000000d0: 0c08 5a3d 74e3 353e daca f1bd d71e fbbe
000000e0: 4ee7 acbd f90d 00bf 3179 cdbe 9c81 703e
000000f0: eab7 ccbd 0ae0 af3c e562 d73d 53bc c8be
00000100: 5d90 95be 6e26 12be 62c2 173e 88f8 e0be
00000110: 2b1e e03c fc76 bf3e 8233 163e 3120 b83d
00000120: ef97 97be 3928 aabd 9b45 93bc febf b3bc
00000130: dda7 f9be 9506 253e 745c f43e eb67 82be
00000140: 7a36 fe3d 6797 3abe 1053 ccbd 1ade 6a3e
00000150: 3f55 663e 64f7 4d3e 3c28 ce3e 36a9 65be
00000160: 25bf 0ebe 27ea 21be 888e 103e 25d3 8fbd
00000170: a839 33bf dbec cdbd e782 123d 86c4 fdbe
00000180: 5a78 a8be 5463 48be 54a0 fdbe 04cf a93c
00000190: 3dca 8d3d a18f bf3d 6bac cebd 7666 983d
000001a0: a5cb 00bd 1129 8b3c f641 a5be 641f 64be
000001b0: 97f5 2abf b9c7 c5bd 30ce 463d ee9e cabe
000001c0: 901c d73c 6277 a2bd e4d0 973e caf0 84be
000001d0: 73fe a33d 6b0a 8dbd 2771 d53d 34b5 483e
000001e0: 6e3b 47bf 4862 d5bd 8c68 3d3e b445 88bf
000001f0: 9957 16bf c492 89be 587f 4abd b5cc 7a3e
00000200: deca 83be 19cc 9abe d48e 9fbe 9ec3 4dbf
00000210: f410 f8bd 343e 913e f200 7d3d d847 4ebd
00000220: bae0 d1bc bc6e 09bf dff3 cdbc cda2 02bf
00000230: b0f9 63bf bdd6 c3bd 7e8d b1be ef1c cc3e
00000240: d681 f43d 45a1 c3be df7b 473f 9f18 e13e
00000250: 961c 353e de36 80be de7c 053f be50 073e
00000260: 390d 983e e6ad 15bd 6829 3e3e 1f6c aebc
00000270: 0dc9 863d 1cd2 b5be 7736 20bf c687 59be
00000280: 45a5 47be a79d 24bd cf79 1dbf b4f1 51bc
00000290: 5491 033d eb76 91bd f1da b3be 56a7 153e
000002a0: 3d99 2dbe da3f 00bf 3f9f e53e 1326 52be
000002b0: 6c92 b5be 2c73 e4be 3fef 0dbe 7341 fabe
000002c0: 9d7d 82bd e6a5 c3bd e448 01bd d139 e53e
000002d0: ae74 f6be fbf3 80be 5c25 2dbd 6f1f f93c
000002e0: f56f ecbd 5863 b13d eea3 2fbd 06b0 c8be
000002f0: cd3e a0be a245 9bbc 5a2e c53d e2f2 433f
00000300: 4d8f 9d3c d504 c83d dce8 b33b 39ea d4be
00000310: 9b91 18be e9e4 5ebe 7f7c 343e 830d 0c3e
00000320: c37d 21bf 669d 633e 0e67 0fbd 4128 adbe
00000330: cf0e 43be 15ae a1be 03da e3bd 05a0 463e
00000340: 764d 60bc 87be 03be 04f0 72bd acda b4be
00000350: 754c 653e 82e1 2fbd 6751 93be a372 8dbe
00000360: 8a65 32bc 55c9 1bbe 6518 f9bd 744d 243e
00000370: d086 0bbe a163 933d 657d 3f3e 3cd3 243e
00000380: 0784 cb3c 80b7 26be 3b83 cdbd 6ea5 c6bc
00000390: f569 03bf 7c34 da3d 1226 823c 425f 59bf
000003a0: df9e 53be f33b 8dbe 32f8 a63e 9737 4bbf
000003b0: 2210 d0be 3ae0 83be 29d9 c3bc 3ac0 263d
000003c0: 2e39 e0bd 39d9 5bbe a171 9e3c be29 103d
000003d0: c023 833c 0d2a bfbd f60e bfbc c0d0 18be
000003e0: 7695 48bf b12e 75bb 65b4 96bd 18b9 a23d
000003f0: 7a6c b33e 4389 ebbd f382 11be c5a8 083f
-0.5972917 -0.7234747 0.07252003 0.21684659 -0.12547918 0.052125774 -0.005498487 -0.0798898
-0.11384038 0.1679917 0.16278167 -0.012760284 -0.8686456 0.10001246 0.16213061 -0.21732153
-0.0684534 -0.067668535 -0.15611082 0.11555976 -0.26253173 0.54824156 0.034809478 -0.022382103
-0.1202942 -0.4770655 0.1366897 -0.019544264 0.20373487 -0.31479192 0.24579847 -0.07632282
0.24948204 0.21468191 -0.2933498 -0.054750517 0.104918055 -0.7035392 -0.0018520571 -0.24856754
-0.4480847 -0.278244 -0.27438 -0.116306394 -0.36375183 0.07806196 -0.33985105 0.01456267
0.20566835 0.25882608 0.6753387 0.23086254 0.05323033 0.17762548 -0.11806269 -0.49046966
-0.08442555 -0.5002132 -0.40131524 0.23486942 -0.09996016 0.021469135 0.105169095 -0.3920618
-0.29211703 -0.14272472 0.14820245 -0.43939614 0.027358135 0.37395465 0.14668086 0.08990515
-0.29608104 -0.08308453 -0.017977526 -0.021942135 -0.48760882 0.16115792 0.47726786 -0.25469908
0.12412734 -0.18221818 -0.099767804 0.22936288 0.22493456 0.20113903 0.4026507 -0.2242783
-0.13940103 -0.15811978 0.14116871 -0.070226945 -0.7000985 -0.10054942 0.03576937 -0.49563998
-0.3290432 -0.1956914 -0.49536383 0.020728596 0.069233395 0.09353567 -0.1009148 0.07441418
-0.03144421 0.016987355 -0.32276887 -0.222776 -0.6678099 -0.09657235 0.04853648 -0.3957438
0.026258737 -0.07932927 0.29651558 -0.25964957 0.08007517 -0.06886753 0.10421973 0.19600374
-0.7782506 -0.10419136 0.18496913 -1.0646272 -0.58727413 -0.26869786 -0.04943785 0.24492152
-0.25740713 -0.3023384 -0.31163657 -0.80376613 -0.121126086 0.2836777 0.06176848 -0.050361484
-0.025619853 -0.5368459 -0.0251407 -0.51029664 -0.8905287 -0.095624425 -0.34678262 0.39865825
0.11938827 -0.38208976 0.7792339 0.43964097 0.17686686 -0.2504186 0.5214366 0.13214394
0.29697588 -0.036542796 0.18570483 -0.02129179 0.06581316 -0.35511863 -0.62583107 -0.212432
-0.19496639 -0.04018941 -0.6151399 -0.012813974 0.032121018 -0.0710276 -0.35127977 0.14614615
-0.16952987 -0.5009743 0.44848058 -0.20522337 -0.35463274 -0.4461912 -0.13860796 -0.4887806
-0.06371615 -0.09553127 -0.031563655 0.44770673 -0.48135895 -0.25186142 -0.042271957 0.030410497
-0.115447916 0.086615264 -0.042880945 -0.39196795 -0.31297913 -0.018954102 0.096279815 0.76542485
0.01923337 0.09766547 0.0054904055 -0.41584948 -0.14899294 -0.2176701 0.17625616 0.1367703
-0.6308252 0.22228011 -0.03501039 -0.33819774 -0.19048618 -0.31578127 -0.11125567 0.1939698
-0.013690343 -0.12865649 -0.059310928 -0.35323083 0.22392447 -0.04293967 -0.28773043 -0.27626523
-0.010888467 -0.15213521 -0.12162856 0.16045171 -0.13625646 0.07196737 0.18700178 0.16096205
0.024843229 -0.16280937 -0.10034796 -0.024248805 -0.5133355 0.10654542 0.015887294 -0.84910977
-0.20666073 -0.275848 0.32611233 -0.793817 -0.40637308 -0.2575701 -0.023907261 0.040710665
-0.10948406 -0.21469583 0.019341292 0.03519606 0.016008258 -0.093341924 -0.023322564 -0.14923382
-0.7835306 -0.0037411863 -0.07358626 0.0794546 0.350437 -0.1150079 -0.1421011 0.5338252

backbone.layers.1.0.bias f4 [64]
00000000: 26f8 9bbe 8eb6 133d ab3b e6be cf50 863d
00000010: 0561 adbd 0618 04be 0cb4 183e 01e1 adbd
00000020: 1385 8cbd e26c 18bf a3f6 1a3e a43e 9d3d
00000030: f4f5 0ebf e82e 33bf 35ba a6bd 4352 b4be
00000040: 23c8 013e baaa 2f3e 3155 e03d 23f8 063e
00000050: ff5a 0d3e a2e9 c33d b73d 8e3d 59e7 1b3e
00000060: 603d 3ebf b496 0ebe 2337 14bd cc9c 2d3e
00000070: 600a 6a3d 803a e1be 480f 0fbe 396d d5be
00000080: 0023 adbd 74cd babd c9cd 99bd b90e 1abf
00000090: 9320 0a3e 4616 d13d bc06 a6bf e570 e83d
000000a0: 65df fa3d 2c5f 85bd d730 77bf 0dea f33d
000000b0: 9439 22be 879b e3be 5110 c3bd 2393 73be
000000c0: 58a1 383d 1235 313e e986 2b3e 5a20 a1be
000000d0: b2f4 dbbe c24b 48bd c15e d6be 488f f8bd
000000e0: 9ad6 c6bd 6d1b 91bd c343 1fbd a937 3f3e
000000f0: 8f54 08bf e6d6 3abf dfe8 92be 4d7b 5b3d
-0.3046276 0.03606277 -0.44967398 0.06558382 -0.08465771 -0.12899789 0.14912432 -0.08490182
-0.068613194 -0.5954114 0.15133147 0.076779634 -0.55844045 -0.6999345 -0.08140985 -0.3521901
0.12674002 0.17154971 0.10953749 0.13180594 0.13804244 0.09566046 0.06945365 0.15224971
-0.743124 -0.13924676 -0.036185395 0.16954345 0.0571388 -0.43989944 -0.13970673 -0.41684893
-0.08453941 -0.09121218 -0.075099535 -0.60178715 0.13488989 0.102093264 -1.2970805 0.11349658
0.122496404 -0.06512293 -0.965589 0.11909876 -0.15842277 -0.44454595 -0.095245965 -0.23786597
0.045075744 0.17305401 0.16750683 -0.31469995 -0.42960125 -0.048900373 -0.41869166 -0.12136704
-0.09708901 -0.07085309 -0.038882982 0.18673576 -0.53254026 -0.7298416 -0.28693292 0.053584386

backbone.layers.2.0.weight f4 [64, 64, 3]
00000000: e20d 513e 486c 1cbf 9f55 4b3d b15d 303e
00000010: bfb5 1cbe c378 643d 81e1 0d3d c4df ecbd
00000020: 1d92 2cbe 24cf 563e 4b91 493e b463 90bd
00000030: 6873 9cbe 597a ea3d 3905 c4be f3d9 82be
00000040: a594 2d3c 59b9 1bbe 39c6 50bd 5143 d73d
00000050: 0530 87bc a300 30be bf00 c93d 21f6 843e
00000060: 50b7 b3bd 5a3b 45bd ecbd 4f3e 0dc3 e63d
00000070: 8995 663e 9f45 91bd e4b3 173e 3a4e afbd
00000080: 373e f53d cf29 673e b53a 6fbe d403 fa3d
00000090: 5dbb 0bbf 8b10 2fbe c97f 03bd df4d 3abf
000000a0: d582 c0be d791 52bf c992 c2bd e12e ee3b
000000b0: 804a b53c 85c1 e83c b2de b6bd d3a6 d6bc
000000c0: 65c0 933e 42aa 56be 6f70 903e ed0c e13a
000000d0: 34ba 483e 46e7 e73d 8b23 97be b210 00bf
000000e0: 10b6 293e c73b 3abe a0a0 f2bd a712 a23e
000000f0: b874 363e e4e3 09be af74 1e3e b0d1 bfbe
00000100: e271 3bbd 754e aebd 2b5a 423d 54a1 c5be
00000110: 7f8e 8e3d e391 4a3e c7b7 053e 1624 ce3c
00000120: 342a 6e3c 0ee7 363d c3d4 d93d ea88 5c3d
00000130: 7eb5 453e 0c9f db3d 6ff2 17bc 5ea0 21be
00000140: a4b1 873d 49c2 44be 21ed 13be 595e 8d3d
00000150: 37ee be3c d0e0 c5bd 6988 d93e ba6d ccbe
00000160: fcd7 0cbe 01ee 38be e58a d8bd 5e7a 25be
00000170: d801 a1bf 5aab 06bf eae7 b03d 62b9 2abe
00000180: 0fb4 51bf 28e8 38bf 6307 99be a749 303d
00000190: fab1 46bd bfe3 143e bad8 01bd d1ce c4be
000001a0: caed 943d 7093 acbc ae9c a33c e5c2 69be
000001b0: 9d26 48be 74ab 36be 6928 123e 0a41 9ebe
000001c0: f446 363d 1e94 45be 0704 633c 6667 16be
000001d0: 25c7 7bbd e1bd bdbd 9a7a 523e 5f97 643e
000001e0: b688 d1be fe9c 4d3e f10e 1b3e 5d74 20bf
000001f0: 3b46 44be c40e 07bf 806e 0bbf 56c6 0cbe
00000200: 187c 71be dab6 49bd 595a f4bd d215 2fbe
00000210: 8e74 9ebe 8e32 123d 65d3 a03d 2122 23be
00000220: 59ed 27be 3175 31bf 5b6c 753e b6a2 0fbd
00000230: 5ddf 2fbf 1345 083e feed 74bd b609 113f
00000240: 0e10 a23d da77 973d 58ef 5a3e ac8b 553e
00000250: 170d 503d 4881 813d 7fdd e23d 3436 0c3e
00000260: e293 053d d2c4 c83d aa1f 863b 05e4 62be
00000270: 5f46 433e e417 97bd c535 1bbf fa70 23bd
00000280: 6fcd 6ebe 2b36 8fbe cd0f 3dbe e9dc aa3c
00000290: 887f ad3d 321f 4abe 9da3 fcbd ae79 623d
000002a0: 7893 17bf 439d bdbe 8d7e 003f 8bc7 2cbe
000002b0: 3d5f b4be c869 53bf d94d 2abe 1e64 10be
000002c0: 41a3 abbd 9683 35bd 4d66 d03c d26d 913e
000002d0: 624a d0be 5f23 c2be 5c7f 3abe 5155 f9bd
000002e0: 7309 28bd 88bd bebe 87d1 d3bc dadb 52be
000002f0: f31e d2be b62e 973e 7715 adbc 9e48 fa3e
00000300: 13f4 df3d b3ee 6abd 8d9e 30bd c71c b13e
00000310: 925a 18bf aafc a7be c578 93be e594 53be
00000320: 3d92 55be 4c78 45be 2dae 75be 91bd 29be
00000330: f5f3 9e3e 382b e5be 843e dc3d 4ab7 15be
00000340: ac1f 4fbd 3001 23bf 42fa 8d3d b65b 0bbf
00000350: 10df 2abe a9cd cd3e 102e 95bc d6e8 aa3d
00000360: 1d03 ebbd 92b2 38be db2a 4f3e 60fb 8c3d
00000370: 6962 e93d 2a98 7bbe 8085 653e fba6 a43e
00000380: 2c75 833e da58 e3be 8261 92be d089 cc3e
00000390: 1fc8 75be 1a16 053e 347d 8b3d 1fea 8dbe
000003a0: 6859 15bf cdda 31be b596 70bd 7489 a23e
000003b0: 74db 79be f51c 54be 6726 cabd 2806 e53d
000003c0: 9703 a13e 1805 65be 6fa7 643f d9f4 9ebd
000003d0: 8761 16be 15e8 3ebe d3f0 41be 2520 acbd
000003e0: 0a70 2bbf 5552 9fbd 33b5 833e a140 38bf
000003f0: 4c68 ac3e 7cef 11be 31bb 96be e117 b73e
0.20415452 -0.61102724 0.0496422 0.1722324 -0.15303706 0.05577923 0.034638885 -0.115661174
-0.16852613 0.20977455 0.19684331 -0.07050267 -0.30556798 0.11449117 -0.38285235 -0.25556907
0.010594522 -0.15207423 -0.05097029 0.105108865 -0.01650239 -0.17187743 0.098145954 0.2596903
-0.087751985 -0.048152305 0.20287293 0.11267672 0.2251798 -0.07093357 0.14814717 -0.085598424
0.11974757 0.22574542 -0.23362239 0.122077614 -0.5458277 -0.17096154 -0.032104287 -0.7277507
-0.37599817 -0.82253784 -0.09500653 0.007268772 0.02213025 0.02841259 -0.089291945 -0.026202595
0.28857723 -0.20963386 0.2821078 0.001716999 0.19602281 0.11323409 -0.29519305 -0.50025475
0.16573358 -0.18186866 -0.11847043 0.31654856 0.17817962 -0.1346584 0.15474199 -0.37464666
-0.045762904 -0.08511058 0.047449272 -0.38599646 0.06960773 0.19782214 0.13058387 0.025163691
0.014536429 0.044653945 0.10636284 0.05384151 0.19307515 0.10723695 -0.009274109 -0.15783831
0.06625679 -0.19214739 -0.14445926 0.06902761 0.023306949 -0.0966202 0.42486885 -0.39927465
-0.13754267 -0.18059541 -0.10573367 -0.1615996 -1.2578688 -0.5260521 0.08637984 -0.1667228
-0.8191537 -0.7222924 -0.29888448 0.04303899 -0.048509575 0.14540003 -0.031700827 -0.38439038
0.07271917 -0.021066397 0.019972172 -0.22828253 -0.1954598 -0.17838842 0.14273228 -0.30908996
0.04450126 -0.19294783 0.013855941 -0.14687881 -0.061469216 -0.09264732 0.20554581 0.22323368
-0.40924615 0.20079419 0.15142418 -0.62677556 -0.19167416 -0.52756906 -0.54465485 -0.13747534
-0.23582494 -0.049246646 -0.11931295 -0.17098168 -0.309483 0.035692744 0.0785282 -0.15930988
-0.16399135 -0.69319445 0.23967116 -0.035067283 -0.687002 0.133076 -0.05979728 0.5665544
0.079132184 0.07395907 0.21380365 0.20854062 0.050793733 0.063234866 0.11077403 0.13692552
0.032611735 0.098031655 0.00409313 -0.22157295 0.19069813 -0.07377604 -0.6062892 -0.039902665
-0.23320554 -0.27971014 -0.18463059 0.020857291 0.0847159 -0.19738463 -0.12335894 0.055291824
-0.59209394 -0.37034044 0.501931 -0.16872995 -0.3522891 -0.82583284 -0.16631259 -0.14100692
-0.083807476 -0.044314943 0.025439406 0.284041 -0.4068175 -0.3791761 -0.18212646 -0.12174476
-0.041024636 -0.37253976 -0.025856746 -0.20591679 -0.41039237 0.29527825 -0.0211284 0.48883528
0.10935225 -0.057356548 -0.043119956 0.34592268 -0.595132 -0.32809955 -0.28803077 -0.20662268
-0.20856567 -0.19284171 -0.23992224 -0.1657622 0.310455 -0.44759536 0.107541114 -0.146207
-0.050567314 -0.63673687 0.069324985 -0.54436815 -0.16686654 0.4019597 -0.01821044 0.08345191
-0.11475203 -0.18036869 0.20231192 0.068838835 0.113957234 -0.24569765 0.22414207 0.32158646
0.25675333 -0.44403726 -0.28590018 0.39948893 -0.24002121 0.12996712 0.0681099 -0.27717683
-0.5833955 -0.17368622 -0.058737475 0.31745493 -0.24400121 -0.20714171 -0.09870606 0.11182815
0.3144805 -0.22365224 0.89317983 -0.07761545 -0.14685641 -0.1864322 -0.18939523 -0.084045686
-0.66967833 -0.077793755 0.25724182 -0.71973616 0.33673322 -0.14251512 -0.2943969 0.35760406

backbone.layers.2.0.bias f4 [64]
00000000: 3e76 a53d b73e 73be d2bd 88be 08a6 f03d
00000010: 40c9 cebd 8361 05bd a7db e5be f575 00bf
00000020: 878e 0cbd 6b68 143e 2edf d33d 4883 b73d
00000030: e494 353d 0cd2 cbbd 2c34 a0bd 1b45 40bd
00000040: 7dca 1fbc 91ab 3b3d 5ea0 0ebc 0cec e93d
00000050: 300a e63c b194 203d 1651 eabd b580 cb3c
00000060: 7bab 02be bb64 15be a392 bcbd 4fed 253e
00000070: ce48 163e 6d3e 363e 8b67 8ebd 7cd4 83be
00000080: 3028 a33e 4e2b 2abe 42b6 89bd 65c0 813d
00000090: 37eb 493e c31e 4c3e b3dd 5ebf 95a1 8a3d
000000a0: afd6 fa3d 84aa 9fbe 4b13 64be 7d7d e43d
000000b0: 2f2e 9bbb 1897 c9be a2c4 86bd f528 a2bd
000000c0: 8137 f1be 666b 1c3e ed21 123e d4e7 2bbd
000000d0: 6139 0bbe 2f1c 0fbf aab7 05bf 9e84 0dbf
000000e0: c0b3 ff3d 8526 29bd 0bcd 63bd a545 97bc
000000f0: cb65 5bbe f950 d1be 71af 12bd ad91 84be
0.080791935 -0.23754393 -0.2670732 0.11750418 -0.10096979 -0.032563698 -0.44894144 -0.5017999
-0.034315612 0.14492957 0.103453025 0.08960587 0.044331446 -0.09952173 -0.07822451 -0.046940904
-0.009752867 0.045817915 -0.008705227 0.114219755 0.02808103 0.039204303 -0.11441247 0.024841646
-0.12760727 -0.14589207 -0.09207656 0.16203807 0.1467621 0.17797251 -0.06953343 -0.2574805
0.31866598 -0.16618082 -0.06724216 0.063355245 0.19718634 0.1993361 -0.87057036 0.067691006
0.12247979 -0.3118478 -0.22272985 0.111567475 -0.00473573 -0.39373088 -0.065804735 -0.07917968
-0.4711266 0.15275344 0.14270754 -0.041969135 -0.13596107 -0.5590238 -0.52233374 -0.5528048
0.124854565 -0.0412965 -0.055615466 -0.018465826 -0.2142555 -0.4088209 -0.035811845 -0.25892392

out.weight f4 [18, 64]
00000000: 284a f83d 98c3 cdbd 028d dfbe 6fbe 9f3e
00000010: fadd cdbe 6133 ddbd a55b 043e 0bee bfbe
00000020: 216a 79be c0ac 6d3e f744 893e e2b5 883e
00000030: 69c4 ad3e 99a3 9ebe b91d a8be 0644 14bf
00000040: 523e 543d 2b58 593e d300 173e 76ef a53e
00000050: 0dd5 1d3e 837e 863e 5884 8bbe a892 713e
00000060: ad7e e1be 1388 c2be d083 88be 13a0 403e
00000070: 0f71 573e 5b41 263e 1804 8abe 3459 d7be
00000080: a8cd a9be ced9 d6be 7363 c7be 4baf 3e3e
00000090: c6f2 863e 62fc 9b3e e4c0 41be ef93 2d3e
000000a0: d775 093e c52c 01be 3aaa 24bf f47c 5e3e
000000b0: ed81 c9be 3b18 45be 564d cbbe d9be 3bbe
000000c0: 0355 85be 0092 823e b198 763e e33c 5abe
000000d0: 2d48 e8be 8248 d8be 427d a3be 4667 babe
000000e0: b8d4 8bbe 5ce1 6abe 89e7 dcbe d6f1 3e3c
000000f0: 3503 00bf 0fab 6dbe 71e7 eabe 3d38 503e
00000100: a8e2 15be f70b 28be f0bf 073d e85d 99be
00000110: 96ce e0bc e071 7d3e 54e0 1c3d 2572 173a
00000120: 54d4 8e3d 1aff b3bd 944b e7bd b910 f0bd
00000130: 93c2 dabd 1733 043e 31cb b63d c42e 593e
00000140: cfc5 1dbe 598e eebc cdbf aabb ad18 7abe
00000150: 4e20 83be 1969 4cbe b5b0 1e3d f72d 1dbe
00000160: b7b9 0d3e d108 f93d 54f9 cebc b0da 46bd
00000170: 29be 78be e4bb 88be 7f03 7d3d 8335 6c3e
00000180: 7536 99bd c02d 1e3e 122e 353e b387 673c
00000190: 78af 61be 31dc 5cbe 636c 213e 09f2 fabd
000001a0: eaa6 67be e530 6f3e adca 083e e590 b6bd
000001b0: 1de1 163e ba64 613e 18b7 923d b0ee 823d
000001c0: 3b49 fc3c b9e2 acbd d11a 6ebe d272 a03e
000001d0: 95d7 3b3e 24af 463b d0ba 3d3d 4bdb 6b3e
000001e0: ffae 183e 096d 773e d909 7e3e e012 13be
000001f0: 4786 0c3e 3896 8a3d db92 4c3d 5dd8 a2be
00000200: bf86 9e3d 8512 ef3d c0fc 06bf 18e7 a9bc
00000210: 70c9 b93e c666 0f3e 05db ca3d 7b49 b03b
00000220: 41f2 b33d 4bdb b03d 6ffb 96bc 0bb1 243e
00000230: 2523 603c 1a0b dd3d 2ceb 9abd f7d1 9dbd
00000240: 600e 0bbe 5e80 9a3c f653 fe3b dfe1 97bc
00000250: 9477 06be e61b 39bc e458 633e c496 cd3c
00000260: d8c7 4ebe 4b9c 0fbf 8e16 3fbf 097f e93b
00000270: 52fb 773d 43df 38bd 671e 6abd 8151 283e
00000280: 03c0 863d 1b9c 673e ce0a 8f3e 1ee9 763e
00000290: e727 393d 1051 053e 60af babe 2d65 1b3e
000002a0: 0c0a 23be 0e37 eb3d a54e e13d e352 2cbd
000002b0: ffc9 853e 6f37 4b3e 6d9a 0bbf 478b c7be
000002c0: 6d85 0b3e 36e2 e0bd 4c06 3c3e 2e2d 8b3e
000002d0: 0824 8ebe 3d29 24be d44e 9a3e b46a 10bf
000002e0: efda 9b3b 74d8 e1be aef4 e43b 9bad 903a
000002f0: 1851 bbbe cb09 45be 5964 2b3e 9ea6 b63e
00000300: 1d08 e0bd 5351 cdbd 7ac6 ccbd 6b7f 5abe
00000310: 3dd5 8a3e 2997 9ebd abb5 0abe da34 c6bd
00000320: dac7 8c3d 1bb3 68be ec56 09be 1f70 34be
00000330: d2f0 273e 4387 18bd 95aa 2d3e 384f 373e
00000340: c48a 55bc 20ab 84bc 7e26 f63d 7bf1 38be
00000350: fe9d 08be 65fb 283d d6b5 683e 51ef 063c
00000360: ddb7 7a3c 1f61 85bc fec8 bb3d 27ad 733d
00000370: 1e95 66be 5d2c c0bb 0fda 3c3e 0fdf 493e
00000380: 2fef 30bd f2d9 ef3d 97b2 86bd d7b3 123e
00000390: 5254 1dbe c2da e2bd 90f5 0b3e 48dd 45bd
000003a0: 4c3f 4bbd 1d52 053e 8bf7 a73d c4a4 93bd
000003b0: 0183 f03d f7b9 2a3e 40f6 043e 102f 7e3d
000003c0: 1309 05bd af52 f4bd 4a5d 38be 424a 783e
000003d0: b419 cebc 663f 4b3e 443d 0a3e cde3 0cbe
000003e0: c228 053e 540e 7cbd eb1b e13d f80e 7a3d
000003f0: eb48 f73d b174 82be dc86 afbd 28fa 48be
0.12123519 -0.10047072 -0.43662268 0.31199977 -0.40208417 -0.108008154 0.12925585 -0.374863
-0.24356891 0.2321043 0.26810429 0.26701266 0.33938912 -0.3098419 -0.32835177 -0.57916296
0.051817246 0.2122504 0.14746408 0.32409257 0.15413304 0.26268396 -0.27249408 0.23591101
-0.44041958 -0.3799444 -0.26663065 0.18811063 0.21039222 0.16235869 -0.26956248 -0.42060244
-0.33164716 -0.41963047 -0.3894306 0.18621556 0.26357096 0.3046599 -0.18921238 0.16950963
0.13423859 -0.12614734 -0.64322245 0.21727353 -0.39356938 -0.19247524 -0.3970744 -0.18334521
-0.2604142 0.25502014 0.24081685 -0.21312289 -0.45367566 -0.4224282 -0.31931502 -0.36406916
-0.2731073 -0.2293753 -0.43145397 0.011654338 -0.50004894 -0.23209785 -0.458797 0.20333953
-0.14637244 -0.16410814 0.03314203 -0.29954457 -0.027442258 0.24750471 0.038299873 0.0005777202
0.06974092 -0.08788891 -0.11293712 -0.117219396 -0.10681643 0.12910114 0.089254744 0.21209246
-0.15407489 -0.029120611 -0.0052108527 -0.24423476 -0.25610584 -0.19961967 0.03874274 -0.15349565
0.13840376 0.12159885 -0.025265373 -0.0485484 -0.2429129 -0.2670585 0.061770912 0.23067288
-0.0748109 0.1544714 0.17693356 0.014131474 -0.22039592 -0.21568371 0.15764003 -0.12253196
-0.22622266 0.23358496 0.13358565 -0.08914355 0.14734311 0.2201108 0.071638286 0.06393182
0.030796638 -0.084416814 -0.23252417 0.313376 0.18343957 0.0030316794 0.046320736 0.23032872
0.14910506 0.24162687 0.24808444 -0.14362669 0.13723098 0.06766933 0.04994474 -0.31805697
0.077405445 0.11673454 -0.52729416 -0.020740077 0.36286497 0.14004049 0.09905056 0.0053798533
0.08786441 0.08635577 -0.01843044 0.16083162 0.013680254 0.10793133 -0.07564387 -0.07706063
-0.13579702 0.018860038 0.007761474 -0.01854032 -0.13131553 -0.011298155 0.22201878 0.025096305
-0.20193422 -0.5609786 -0.7464379 0.0071257395 0.060542412 -0.045134794 -0.0571579 0.16437341
0.06579592 0.22618143 0.2793793 0.24112365 0.04520407 0.13019204 -0.36461926 0.15175314
-0.15921801 0.1148511 0.110013284 -0.042071234 0.26130673 0.19845365 -0.5453251 -0.38973448
0.13625117 -0.10980646 0.18361777 0.27182907 -0.27761865 -0.16031356 0.30138266 -0.56412816
0.0047563235 -0.44110453 0.006987176 0.0011038067 -0.36585307 -0.19242017 0.16737498 0.35673994
-0.109390475 -0.10025277 -0.09998794 -0.21337669 0.27115813 -0.07743675 -0.13545863 -0.096780494
0.06874056 -0.22724573 -0.13412064 -0.17620896 0.1640046 -0.03723837 0.16959603 0.17901313
-0.013033573 -0.01619488 0.120190606 -0.18060867 -0.13341519 0.041255374 0.22725615 0.008235768
0.0153026255 -0.016281663 0.091691956 0.059491303 -0.22517821 -0.0058646635 0.18442558 0.19713996
-0.043196853 0.11711492 -0.06577032 0.14326416 -0.15364197 -0.11076881 0.13667893 -0.048306733
-0.04962091 0.13019605 0.08201512 -0.07209161 0.11743737 0.16672502 0.12984562 0.0620566
-0.032479357 -0.11929833 -0.18004337 0.24247077 -0.02515874 0.19848403 0.13499933 -0.13758774
0.13003829 -0.061537102 0.10991653 0.06104943 0.12074455 -0.25479653 -0.08570644 -0.19626677

out.bias f4 [18]
00000000: c2cd 2d3e cd25 24be de5d b63d 2906 8cbe
00000010: cd2c 383d b4ab 823d d86c 493d 944c 14be
00000020: 9bb5 443d de7f 08be 2b90 14be 9e6b 9bbd
00000030: c53d bbbe ca44 be3a 73d9 3c3c 9975 3e3d
00000040: f7f9 18be c986 50be
0.16973022 -0.16030045 0.089046225 -0.2734845 0.0449646 0.06380406 0.049176067 -0.14482337
0.048024755 -0.13330027 -0.1450812 -0.07588886 -0.36570564 0.001451635 0.011526453 0.04649887
-0.14939104 -0.20363916
