models/5.2.recipe.pt (torch, 702035 bytes, 7 tensors)

word_embeddings.weight f4 [5194, 32]
000000 ba 46 c3 bf 31 0f 40 bf 4b 6b 27 bf 99 03 ce bf
       -1.5255959 -0.7502318 -0.6539809 -1.6094848
000010 73 24 cd bd ce f3 1b bf 5b d2 7a bf de f6 cd bf
       -0.10016718 -0.6091889 -0.97977227 -1.6090963
000020 1c 4f 36 bf 73 81 9b 3e 12 fe 46 bf be be 80 be
       -0.7121446 0.303722 -0.7773143 -0.25145525
000030 e0 9a 63 be 55 f3 d7 3f 4a e8 69 3e ec 6d ef 3e
       -0.22227049 1.6871134 0.22842517 0.4676355
000040 c9 6c 32 bf d5 93 94 bf 36 15 33 3f 0e dc 4b 3e
       -0.6969724 -1.1607615 0.6995424 0.19908163
000050 04 9e 5d 3f 04 45 7a 3e 8f b4 29 bf c1 ab 4e 3f
       0.8656924 0.2444039 -0.66291136 0.80730826
000060 df 03 8d 3f 94 28 34 be 38 b7 0f c0 89 25 b9 bf
       1.1016806 -0.17593604 -2.2455578 -1.446458
000070 f6 7d 7a 3d 80 24 1e bf 4e 4e 4c bf 3c c8 06 be
       0.061155282 -0.61774445 -0.79806983 -0.13162321
000080 ff 7d f1 3f 79 93 97 bd 74 d3 20 3e d8 c3 45 bf
       1.8866576 -0.07401175 0.15705663 -0.7725196
000090 f0 5b 4c 3e 1a f5 41 3d 29 7e 1f 3e 5d 08 f6 be
       0.19956946 0.047352888 0.1557547 -0.48053256
0000a0 fd e9 e1 bd e2 22 95 3e f9 f4 1d be 56 92 e4 bc
       -0.11030958 0.29128176 -0.15425481 -0.02790181
0000b0 36 a0 16 40 a5 f4 84 bf 98 79 c9 3f 62 2c 21 bf
       2.3535285 -1.038716 1.5740232 -0.6295835
0000c0 5b a3 6c bf da be 0b 3f 5b 53 7b 3d 9c 5e df be
       -0.9243676 0.5458809 0.06135879 -0.4362687
0000d0 f6 6d 41 3f c9 22 e0 3e b7 3b 94 3f 85 aa 00 40
       0.7555841 0.4377654 1.1580724 2.0104077
0000e0 9f 64 0b 3e a5 a6 6f 3f 85 32 47 be 7f de 24 bf
       0.13612603 0.93613654 -0.19452865 -0.64402
0000f0 0f fc c5 3f 13 03 5f bf df 4f 55 c0 20 d9 3f bf
       1.5467547 -0.87114066 -3.333 -0.7494068
000100 8a ea d0 bc 7f fc 82 bf 97 9f 18 bf 3b b5 80 bf
       -0.025502462 -1.0233306 -0.59618515 -1.0055307
000110 2e a9 57 be 40 51 f7 bb dd 32 d6 3f fa 74 29 3c
       -0.2106063 -0.0075475276 1.6734272 0.010342831
000120 81 36 34 bf 51 b6 3d be 43 09 7f bf 25 cd 54 bf
       -0.70395666 -0.1852658 -0.9962351 -0.83125526
000130 14 0b ec be 90 61 0f bf f6 88 ca 3e 83 76 7b bf
       -0.46102202 -0.56008244 0.39557618 -0.9822771
000140 1b a9 01 bf 0c 57 cc 3d cd 6a 27 bf 47 50 3b 3f
       -0.5064866 0.099775404 -0.6539734 0.7316937
000150 f5 99 b7 bf 49 35 00 bf 99 c0 2f 3e 3d d5 23 be
       -1.4343859 -0.50081307 0.17163314 -0.15999313
000160 52 5f 82 3e 46 80 00 bf 0b 46 85 bf dd 75 3b 3f
       0.2546335 -0.5019573 -1.0412 0.7322672
000170 02 30 86 bf d1 16 f1 be d3 0f 95 3e 66 cf fe 3f
       -1.0483401 -0.4708772 0.29113635 1.9907043
000180 7b 54 29 3f 51 4f 98 3f 5e 08 51 3f af dc 69 bf
       0.6614453 1.1899205 0.8165339 -0.9135236
000190 74 4c b1 3f 3a 58 50 bf a8 75 6d bf d0 54 8e 3f
       1.3851457 -0.81384623 -0.92757654 1.1119633
0001a0 05 e8 aa 3f ad b1 1a 3f 71 d9 d3 bd 9c d8 1a be
       1.3352057 0.6042736 -0.10344208 -0.15121692
0001b0 87 88 06 c0 c2 b9 1e bf ac 36 bd bf d3 13 91 bf
       -2.102083 -0.62002194 -1.478231 -1.1334175
0001c0 1d b1 5f 3f 29 6d 0f bf 96 94 a4 3f 5e 1b 51 3f
       0.8737963 -0.5602594 1.2857845 0.81682384
0001d0 3d 3b 52 3e 02 37 9c 3e c9 22 09 3f 48 c4 dc be
       0.2053041 0.30510718 0.535687 -0.431185
0001e0 8a b8 23 40 f1 f6 6e be 35 ba 5c bc 48 29 ee 3f
       2.5581384 -0.23336388 -0.01347213 1.8606348
0001f0 f4 7d fd bf f7 37 e6 3f 98 82 d0 3d 44 15 ae 3e
       -1.9804063 1.7985829 0.10181159 0.340006
000200 86 5d 36 3f 97 64 e3 bf bd 2d b5 3e ed 8c 99 3f
       0.71236455 -1.7765073 0.35386458 1.1996132
000210 7a 22 9b be 07 84 e1 bf 2d 85 22 3f 7a ea 4d bf
       -0.3029974 -1.7618417 0.6348446 -0.8043591
000220 e9 38 ce bf 03 91 ef bf 87 07 0b 3f 3c 22 29 3f
       -1.6111118 -1.8716129 0.5430836 0.6606786
000230 bf e4 12 40 a3 c6 2c 3f 1f 4e db 3f c0 aa e5 bf
       2.2952116 0.67490596 1.7133216 -1.7942734
000240 8a 7f ae bf 48 b4 7b bf 30 71 c1 3f a4 51 24 3f
       -1.3632672 -0.9832196 1.5112667 0.64187074
000250 50 28 f2 3e 29 70 db be a2 26 0d 3f 40 10 c6 bf
       0.4729638 -0.4285901 0.55137074 -1.5473709
000260 ff a2 04 3f 35 2f da 3d ed d9 89 3e ff 91 a9 3f
       0.5181121 0.10653535 0.26924077 1.324768
000270 8e 7d df 3f a0 6f ed 3f 9b d4 34 bf 4d a7 23 40
       1.7460191 1.854969 -0.7063691 2.5570862
000280 0e c7 d5 3e e8 d2 59 be 7d 07 57 bf 95 0c d7 be
       0.4175343 -0.2127186 -0.839958 -0.42001787
000290 d8 c0 1f bf 14 30 7a bf b3 f5 5f 3f 79 be 7c 3f
       -0.6240363 -0.9772961 0.8748428 0.9872814
0002a0 ca 80 9e 3e f8 a5 c2 3f 1b 45 9a 3f 49 65 e8 bf
       0.30957633 1.52069 1.2052339 -1.815591
0002b0 83 92 ce be 8a 8a 75 bf 63 a5 aa bb ff 82 a1 bd
       -0.40346155 -0.9591452 -0.005207704 -0.07886314
0002c0 ba f9 57 3f b3 35 95 3f 07 e5 06 3f b1 43 cf 3f
       0.8436543 1.1657013 0.5269322 1.6192533
0002d0 26 c7 76 bf b8 ea 10 3e bd 96 27 be f3 68 b7 be
       -0.96397626 0.14152038 -0.16366096 -0.35822257
0002e0 a6 73 dc 3f 43 6e 9b be 70 9b 74 3e 3b 08 ac 3f
       1.7222793 -0.3035756 0.2388742 1.3440012
0002f0 fe 67 d3 3d 68 d8 8c 3f b5 f0 ae be cd 84 72 3f
       0.10322569 1.1003542 -0.3416802 0.9473389
000300 49 f9 10 bf 8c ea 56 3f 79 6c e4 3f c2 34 4d be
       -0.5663038 0.8395164 1.7845603 -0.20039657
000310 df 96 03 3f b2 b0 ec bf fb ef 3a c0 53 c0 10 bf
       0.51402086 -1.8491423 -2.9208972 -0.56543463
000320 ae 2a 0a bf 1a c4 65 3f 05 d6 62 bf 48 9e 07 3f
       -0.53971374 0.8975235 -0.8860782 0.52975893
000330 fd 39 c6 bf 5c 1f 30 be cc a2 3a 3f 92 cb 71 3d
       -1.5486447 -0.17199463 0.7290466 0.05903203
000340 f0 f9 67 3f 24 e7 85 3f 23 37 05 bf 95 58 ad 3f
       0.9061575 1.0461164 -0.52037257 1.3542658
000350 d7 cf 72 3e c7 f1 f4 3f 63 c7 ea 3f 86 8c a9 3f
       0.23712097 1.9136285 1.8342098 1.3246009
000360 1e e5 78 bf 74 f3 9f 3f 6a a6 9a 3f 7a e1 06 bf
       -0.97224605 1.2496171 1.2082036 -0.526878
000370 0a cf 5e 3e 03 f4 12 bf 26 c6 ba 3f bf b2 e2 3f
       0.21758667 -0.5740358 1.459172 1.7710799
000380 60 30 d3 3f b4 2f dd be 0a c4 8a be 7b 36 b8 bf
       1.6499138 -0.43200457 -0.2710269 -1.4391626
000390 05 9f 9f 3f 8e 0d a3 3f 80 2a c8 3e 74 40 c6 3e
       1.2470404 1.2738512 0.39094925 0.3872105
0003a0 3d 7d a3 bd 7d f6 ae 3e 59 e6 72 3f d0 24 b1 bf
       -0.07982872 0.3417243 0.9488273 -1.3839359
0003b0 dc ae dc 3f 50 58 17 c0 1e f3 6d bf 0e 56 96 3e
       1.7240863 -2.3647652 -0.9294909 0.2936253
0003c0 92 4b 5c 3e 28 3f 70 3f 4f 9c bb 3f 1b 75 0e bf
       0.21513203 0.9384637 1.4657077 -0.5564744
0003d0 e3 ad 3e bf 4d 02 4f be 10 2e 6b be 3e 80 ae 3a
       -0.7448408 -0.20215721 -0.2296679 0.0013313366
0003e0 2a 24 c0 3e de c0 14 bf d5 82 12 bf 6c 3e 81 3f
       0.3752759 -0.5810679 -0.57230884 1.0097175
0003f0 b5 5e d8 bd 47 00 97 bf a7 ea b9 bd 43 28 10 3f
       -0.10564939 -1.179696 -0.090779595 0.56311435

lstm.weight_ih_l0 f4 [128, 32]
000000 29 b5 d1 bb 92 79 22 be 56 4a 33 3d f0 e5 15 3e
       -0.00639977 -0.15866688 0.043772064 0.14638495
000010 3d c4 5c be 11 02 a9 3d b0 7a 67 3e df 00 01 bd
       -0.21559234 0.08252347 0.22605395 -0.03149497
000020 c4 3e 5e 3e 48 84 51 3e 89 58 94 3c 04 43 35 bd
       0.2170363 0.20460618 0.018108623 -0.044253364
000030 f8 a6 0b 3c b7 65 f1 bd 7e bc 24 be e3 a3 62 bd
       0.008523695 -0.11786979 -0.16087529 -0.055332076
000040 e0 74 62 be f8 64 36 3c bb 5e 99 bb ca 6b 41 be
       -0.22114897 0.011132471 -0.004680482 -0.18888775
000050 ee d4 05 3c f9 8f 9c 39 8c b8 64 bb 3f a8 41 bd
       0.008168442 0.00029861907 -0.0034900038 -0.047279593
000060 af 34 85 be 86 af 83 3e 2b 36 3c 3d 67 4a 76 be
       -0.26016757 0.2571985 0.045950096 -0.2405182
000070 86 ab cb 3d c9 db 29 3d b9 c2 72 be 24 b5 3f 3e
       0.09944825 0.04146937 -0.23707093 0.18721443
000080 9b 03 3f 3e 24 7e 8a be 63 26 32 3d 0a 68 9c 3c
       0.18653719 -0.27049363 0.04349364 0.019092578
000090 b8 a8 87 3e 94 6c 8d 3d ee 28 27 be 95 1d 58 3b
       0.2649591 0.06905475 -0.16324207 0.0032976617
0000a0 ba 98 84 3e f6 74 53 3d 99 58 8f 3c e3 bd ff 3e
       0.2589777 0.051625215 0.017498301 0.4994956
0000b0 a1 ea 34 bb 58 a5 b2 3d ea 32 30 bd 0a b2 a4 3e
       -0.002760567 0.08722943 -0.043017305 0.32167083
0000c0 2b 31 56 be 26 18 9b bd b1 9b 54 be c3 8a bb bc
       -0.20917194 -0.07572965 -0.20762517 -0.022893315
0000d0 b0 49 9a 3e 25 ab f2 3d 3c 4f af 3e f2 b4 d7 3c
       0.30134344 0.118490495 0.3424014 0.026331399
0000e0 f5 95 47 3e 5e c2 62 bd db 3f 37 3d f1 59 bc bc
       0.19490798 -0.055361144 0.04473863 -0.022992106
0000f0 6f 42 31 3d 0e 85 69 bc fb 1d 19 be c0 52 bb bd
       0.043276247 -0.014252914 -0.14952843 -0.09146643
000100 f3 95 ef bb 06 8b 7c bd 80 4b f5 3d 59 7b ca 3e
       -0.0073115765 -0.06165602 0.11977291 0.39547232
000110 74 40 83 be e1 bc ce be c4 2d bb bc 82 90 a0 3d
       -0.2563511 -0.40378478 -0.022848971 0.07840063
000120 dc f9 61 be 44 04 2e be 91 30 fb bd 65 0d 8e bd
       -0.2206797 -0.16993815 -0.12265123 -0.069361486
000130 84 56 80 3d 7a 75 2c 3e 8c be 7b 3e e5 98 83 be
       0.062665015 0.16841689 0.24584407 -0.25702587
000140 6b c7 18 be 40 be 7e be 15 13 4b 3e a3 0c 02 3e
       -0.14919822 -0.24877262 0.19831498 0.12700133
000150 0b 36 f0 be f4 77 92 be 8b c5 cf 3e a8 f1 21 3f
       -0.46916232 -0.28607142 0.405804 0.63259363
000160 4e ce 83 bc b7 3a 48 3e 42 85 3c 3f 58 0f 88 be
       -0.016089585 0.19553648 0.73640835 -0.26574206
000170 1e 85 1f bd 71 20 67 3d e4 4f 22 3e d8 0d 8e be
       -0.03894531 0.056427423 0.15850788 -0.27744937
000180 a3 97 41 bf b2 f6 a8 be d4 2d a4 be 4d 36 fb 3b
       -0.75622004 -0.33000714 -0.32066214 0.0076663853
000190 eb 7c 7e bd 05 e7 2e bf 01 34 d1 3e 86 82 45 be
       -0.06213085 -0.6832126 0.40859988 -0.19288072
0001a0 73 b6 71 be 15 9a a8 3e f6 41 9c 3e 19 32 c2 3e
       -0.23604755 0.32930055 0.30519074 0.37928846
0001b0 a8 1d a2 3e 44 72 36 be 9e 4a 70 3e 87 a6 b8 3c
       0.3166325 -0.17817026 0.23465964 0.022540344
0001c0 a5 de c0 be 46 e8 0d 3f 0a 14 be bc f3 94 33 be
       -0.37669864 0.55432546 -0.023202915 -0.17537288
0001d0 40 3f aa bd 87 bb 90 be ee 2c ac 3c 15 ec b0 bc
       -0.08312845 -0.28268072 0.021017518 -0.021596948
0001e0 48 05 1e be 02 1a a9 bb 93 0f 12 3e a8 c5 8d 3e
       -0.15431702 -0.005160571 0.14263754 0.27689862
0001f0 b9 eb b1 3d 84 cf 38 bd ed 50 9a 3e e4 62 7b bc
       0.08687539 -0.045119777 0.30139866 -0.015343402
000200 e8 03 85 3e cf 40 f3 3d db 10 08 bd 63 de 57 3d
       0.25979543 0.11877596 -0.0332192 0.05270232
000210 27 ef 3a 3d c6 24 9b 3d 31 17 15 be 03 cb dc bc
       0.04563823 0.07575373 -0.14559628 -0.026952272
000220 28 b5 c7 bc de 83 49 3d 62 2d e2 be 13 a1 33 bd
       -0.024378374 0.049198024 -0.4417525 -0.043854784
000230 91 5d 7c bd b3 88 91 be 16 b7 34 3d 1e 08 7a bd
       -0.06161267 -0.28424606 0.044119917 -0.061042897
000240 6b 02 c3 be 5d dc 8c bd 37 58 76 3e 1a d9 ea 3d
       -0.38087782 -0.068779685 0.24057089 0.1146719
000250 49 e5 25 be 2e 7c c2 3e 9b 25 35 3e 13 a5 b3 bd
       -0.16200747 0.37985367 0.17690127 -0.0877172
000260 76 db 21 3d 82 29 7f 3e 17 b5 9e bd 2c 0d a4 bd
       0.039515935 0.24918178 -0.07749384 -0.08010325
000270 b0 ff 50 3e cf 1f 8c be 73 a1 7d bd 7b cc 30 3e
       0.20410037 -0.27368018 -0.061921548 0.17265503
000280 c5 78 c1 3d 3b 22 f6 bd d4 a4 a5 be dc 6f f0 be
       0.09446863 -0.12018248 -0.32352316 -0.46960342
000290 dd f3 9f 3e c4 de 35 bd f8 a7 af be 45 e6 39 3e
       0.3124074 -0.0444019 -0.34307837 0.18154247
0002a0 09 3f 1a 3f 66 27 b9 3c 42 41 41 3f f0 73 2f 3d
       0.60252434 0.022601794 0.754902 0.042835176
0002b0 62 50 4d 3e 7d 3a a4 3e cc ce 47 3f 23 4c 40 be
       0.20050195 0.32075873 0.7804992 -0.18779044
0002c0 5f ec 91 3d 00 ac f1 bd 8a 4b 36 3f 7e 96 87 3e
       0.07125162 -0.118003845 0.71209013 0.26482004
0002d0 e6 d7 d0 bd 9f 44 76 bd a5 f2 2c 3e 5b 2a ee bc
       -0.10197429 -0.060124036 0.16889437 -0.029072931
0002e0 59 85 a9 be f4 3a 17 bf 9d b6 c9 be 00 c0 61 be
       -0.3310955 -0.5907433 -0.39397135 -0.22045898
0002f0 f6 3b c6 3e ca f4 30 be 77 9e e9 3c 63 ce e4 38
       0.38717622 -0.1728088 0.028517945 0.0001091033
000300 27 11 db bd d1 dc 07 be 66 5c 4a be 5a d9 a1 be
       -0.10696631 -0.13267829 -0.1976181 -0.3161114
000310 c3 c0 20 be 07 15 84 3e 80 c2 37 be fc aa 4c be
       -0.15698533 0.25797293 -0.1794529 -0.199871
000320 cc 98 4c be 70 03 9c 3c 18 c9 6d bd f1 b6 93 be
       -0.19980162 0.019044608 -0.058053106 -0.2885051
000330 c6 84 e9 bd 46 0c 20 3e 8c ac 73 3e e4 28 cf 3d
       -0.11402278 0.15629682 0.2379629 0.10115221
000340 df 36 b4 3d 6e 6f 58 3e 57 e2 11 3d 5a 2d 9d 3d
       0.08799528 0.21136257 0.035616245 0.07674666
000350 66 04 4e 3d 45 3a 12 bd 65 be af 3e 29 60 aa 3e
       0.050297163 -0.0357001 0.34324947 0.3327649
000360 e3 1c 54 be 1a 45 0f 3c 1c 03 06 3e 68 de 35 3e
       -0.20714144 0.008744502 0.13087124 0.17760623
000370 ef c4 da 3e 86 6c b2 3b 53 37 d7 bd 4b 30 de 3d
       0.42728373 0.005445066 -0.10508599 0.10849055
000380 8a 5d 21 3e f9 57 c8 bd 1b 2c 9e bd 3a 3c 98 be
       0.15758339 -0.097824045 -0.07723256 -0.2973345
000390 ca af f5 3c f1 56 0f 3e 47 bb 23 bf 7b 57 65 be
       0.02999105 0.1399801 -0.6395764 -0.22396652
0003a0 43 d5 03 bd 8a ca 91 bd cd 50 17 be 01 d8 b2 3e
       -0.032185804 -0.071187094 -0.14776917 0.34930423
0003b0 d0 5e 86 bd dd f6 93 3e 79 07 21 bd e8 72 84 be
       -0.06561053 0.2889928 -0.039313767 -0.25868917
0003c0 d1 3c 64 be 6a 90 ca 3e f1 b7 c0 bc 1b b3 96 be
       -0.22288825 0.39563304 -0.02352521 -0.29433522
0003d0 08 55 9e be 98 df 4b 3e 9d 67 a0 3e 41 92 81 bc
       -0.3092425 0.19909513 0.3132905 -0.01581681
0003e0 d6 95 be be 38 6f a5 3c 89 b5 82 3d 2c fb 08 3e
       -0.3722369 0.020194635 0.06382281 0.13377064
0003f0 25 39 cb 3d 82 f9 e6 bc e6 6c 4a 3e f8 8b 0c bc
       0.09923009 -0.028195146 0.19768104 -0.008578293

lstm.weight_hh_l0 f4 [128, 32]
000000 83 23 02 be 5d 1b 3e bd c1 8a 25 bd 2f b5 d2 3d
       -0.12708859 -0.046412814 -0.04041553 0.10288464
000010 5f 4d 48 3e f3 95 5f 3d 09 ca bf 3d 78 f9 01 3e
       0.19560765 0.054586362 0.09364707 0.12692821
000020 d5 0b ef ba b0 a2 bc 3d c8 04 a6 bd 1a f5 d0 bd
       -0.0018237779 0.09210718 -0.08106381 -0.102029994
000030 f3 1b 5b 3c 29 cc 0c be 8d 62 14 3d 24 0f d6 bd
       0.013373363 -0.13749756 0.036226798 -0.104521066
000040 cc dc c7 3d 3c 4a 63 be 4b 2a e1 3d 37 b0 97 bd
       0.097589105 -0.22196287 0.10994395 -0.07406657
000050 59 1e d4 3d b5 ff 13 be cf ad a1 3c dc b3 61 3e
       0.10357351 -0.14453013 0.019736199 0.22041267
000060 95 a4 c3 3c b2 f4 df 3c de 50 3c bd 48 a4 1e bc
       0.02388219 0.02733836 -0.04597556 -0.009682722
000070 a4 71 ae bd d8 4f 67 bd 0a 2b 96 bc ca a0 e7 3c
       -0.08517769 -0.05647263 -0.01833107 0.028274912
000080 e0 51 65 be 98 9d 84 bc 6e 6f 9c 3b c2 8d bc 3d
       -0.22394514 -0.016188428 0.0047740256 0.09206726
000090 59 c7 83 3e d9 4a 09 3e b2 50 16 bd 22 f8 97 bc
       0.25738028 0.13407458 -0.03669805 -0.018550936
0000a0 93 f8 e3 3c 79 41 36 3e 84 8e 17 3e 67 ea 87 bd
       0.02782849 0.17798413 0.14800459 -0.066365056
0000b0 75 22 eb 3d a5 bc eb 3d 55 1a 49 be b9 77 2e 3e
       0.114811815 0.115105905 -0.19638951 0.17037858
0000c0 da c5 a8 bd e2 6b 56 bd f3 00 6f bd 6e 4e 43 3e
       -0.08240862 -0.05234898 -0.058350515 0.19072887
0000d0 43 96 f6 3d 7d da 58 3d 9c c8 1b be 6a 04 6f 3d
       0.12040379 0.05294274 -0.15213245 0.05835382
0000e0 48 03 20 be c9 f9 f4 bd 20 cd 76 3e 45 41 01 3d
       -0.15626252 -0.11961705 0.24101686 0.031556387
0000f0 1e 83 b2 3d a0 be 4d bd 31 83 09 3e e5 cc 11 bd
       0.08716415 -0.050230622 0.13428952 -0.035595793
000100 c2 d7 a8 3d f0 5a 71 3d 15 bb 64 be 21 2c 3d be
       0.082442775 0.058924615 -0.22336991 -0.18473865
000110 8c 1f 73 3d 41 76 bd 3e cf 01 78 be 7c f1 2a be
       0.059356257 0.37004283 -0.2421944 -0.16693681
000120 c7 55 ee 3c 98 6c 24 be f0 01 2e 3d 9c b9 f6 3d
       0.029093636 -0.1605705 0.042482316 0.12047121
000130 4c 06 d8 bd 00 44 7a be 22 78 54 3e d6 03 80 3d
       -0.10548076 -0.24440002 0.20748952 0.06250732
000140 d0 57 50 bb 97 c5 ae bc ca 77 c8 bd 8c a5 02 bd
       -0.0031790622 -0.021334453 -0.09788473 -0.03189616
000150 ae 53 87 3c 8c f8 1e 3e c3 b3 82 bd 3b 92 a9 3e
       0.016519394 0.155245 -0.06381943 0.33119377
000160 f4 c8 cd bd 5e 3f 6a 3d c4 ca cd 3d 83 aa 48 3e
       -0.100480944 0.057189338 0.1004844 0.19596295
000170 3c bb 79 be d5 ab 2c bd c3 f4 f3 be 97 33 16 bd
       -0.2438783 -0.04215606 -0.47647676 -0.036670294
000180 13 a8 23 bd eb 7d 54 be 72 61 bf 3d 8e bd 34 be
       -0.03995521 -0.20751159 0.09344758 -0.17650434
000190 50 d1 85 be 46 fa ca 3d a3 aa 1c bd 77 f9 85 be
       -0.26136255 0.09911017 -0.03824867 -0.2616689
0001a0 80 7f dd bd 8f b9 37 be 6c 80 3b be b1 40 90 3c
       -0.10815334 -0.17941879 -0.18310708 0.017608972
0001b0 86 5b 96 3e 0d 2c 29 be 14 e0 33 3d 0e 74 50 be
       0.29366702 -0.1652071 0.04391487 -0.20356771
0001c0 42 bb c2 be 36 bc 8d 3e c9 05 2b 3d f3 54 1f 3d
       -0.3803349 0.27682656 0.041753564 0.038899373
0001d0 08 27 b5 3d 9d 51 90 3e 0e da a6 bc ec 79 60 3e
       0.08845335 0.28187266 -0.020367648 0.2192151
0001e0 78 77 fe 3d 92 b3 91 3d 8e 82 d4 bd 7d 65 e2 bd
       0.124251306 0.071143284 -0.10376464 -0.110545136
0001f0 7f 4d 1a be 0c 38 a1 3d 3c 49 cd 3c 47 8b 39 3c
       -0.15068625 0.07872018 0.025059335 0.01132471
000200 6d d4 95 bd f2 56 d4 3c 0d f0 05 be 03 d3 dc 3d
       -0.073159076 0.025920365 -0.13079853 0.10782435
000210 1a 2a be bc 06 31 09 be 2d f6 70 3e 40 34 09 be
       -0.023213435 -0.13397607 0.23531409 -0.13398838
000220 a5 2f 22 bb 26 01 db ba 8b df 7c be 5e 90 85 bd
       -0.0024747637 -0.0016708716 -0.2469465 -0.065216765
000230 d3 c8 a2 bd e1 e1 b6 3d 7d e5 0f be 66 ec ab 3d
       -0.079484604 0.08929802 -0.14052387 0.08394699
000240 3c 43 b1 3d 9c 33 e5 3d 42 52 24 3d 0c 5e 61 bc
       0.08655402 0.11191484 0.04011751 -0.013755333
000250 42 51 fe 3c 79 3a 4b be 85 84 c3 3d a0 86 31 3e
       0.031044606 -0.19846524 0.095467605 0.17336512
000260 f8 de 4b be 09 b6 24 3d 8e ee 16 3d c2 7e df bd
       -0.19909275 0.040212665 0.036848597 -0.10912849
000270 ba f5 5e 3e e6 8d 01 3e 7b 1a 4d 3e 3c e9 52 3e
       0.21773425 0.12651786 0.20029633 0.20596784
000280 b7 98 fb 3c c5 8d 16 bd 10 ed 1d be a7 a2 ed 3d
       0.030712469 -0.036756296 -0.15422463 0.11603289
000290 21 2b 81 3e f7 8d 23 3e 64 22 c8 3c bb dd 81 3d
       0.25228217 0.15972124 0.024430461 0.0634112
0002a0 ee ac 09 bc 9d 2a 4e bc 73 0d 29 be 4d 5f 40 bd
       -0.008403046 -0.012583402 -0.16509037 -0.046965886
0002b0 b7 5c 86 be 13 ba 4c 3e 5b d4 d3 bd 1b 2c 37 3e
       -0.2624261 0.19992857 -0.10343238 0.17887919
0002c0 69 b6 8d be 5e 75 52 bc 4d 45 2f 3c 27 5a 5c be
       -0.2767823 -0.012845365 0.010697675 -0.21518765
0002d0 c9 7b 38 3d 30 96 1e be eb 0f 84 3d 1e 06 45 be
       0.045039926 -0.1548698 0.064483486 -0.19240615
0002e0 08 d6 05 be b9 10 c8 3d a4 3f a3 3c fc 94 23 3b
       -0.13069928 0.097688146 0.019927807 0.0024960628
0002f0 76 3c ad 3c 6e 7f 42 3d ff 5f 04 3e 16 4b 86 bd
       0.021146994 0.047484808 0.12927245 -0.0655729
000300 2a e2 e9 bd de 22 24 bd a0 b7 b9 3e 3c 3d fa 3d
       -0.114200905 -0.040072314 0.36272907 0.12218711
000310 b4 b7 3f bd 23 c9 0e bd 40 fd 09 3e 13 a9 0b 3e
       -0.046806052 -0.034859788 0.13475513 0.13638715
000320 57 b4 2f be 38 f7 40 3d b9 09 2b 3e 8e 23 d3 39
       -0.17158638 0.047110766 0.16702928 0.00040271546
000330 37 73 68 bb 35 86 9d be 52 bf a5 3d a9 c8 75 bd
       -0.0035469064 -0.30766454 0.08093132 -0.060005818
000340 84 6b 45 bd e1 4a 34 be d1 cc 12 bf c2 87 d4 3d
       -0.048198238 -0.17606689 -0.57343775 0.10377456
000350 6a 6d 62 be b8 c8 ac be f9 c4 2e be f5 27 e6 be
       -0.2211205 -0.33746886 -0.17067327 -0.4495236
000360 f8 e7 b1 bd 9d b2 90 3d bc 9d 6f bd b9 26 53 be
       -0.08686823 0.07065318 -0.058500037 -0.2062024
000370 6d 05 d0 3d 96 74 cb 3e ce 54 ce bd c5 64 dc be
       0.10157285 0.39737386 -0.10074769 -0.4304563
000380 27 c4 09 bc bb 81 b5 bd 34 9d 22 3e f5 c0 d3 bd
       -0.008408583 -0.08862635 0.1588028 -0.10339538
000390 35 aa 3d be 84 58 c4 bc bf 5a f3 3d 7d 41 cc bd
       -0.1852196 -0.023967989 0.11882543 -0.099734284
0003a0 18 25 57 bd 3b 8d d0 3b d2 60 37 3b 83 13 16 be
       -0.05252561 0.0063644922 0.0027981293 -0.1465588
0003b0 93 92 1a 3e 70 fc f6 bd 21 39 53 3e df fd 3d be
       0.15094976 -0.120598674 0.20627262 -0.18553875
0003c0 d3 9c 0e be 40 f3 0c be 6c 92 28 bc 21 3f f4 3c
       -0.13927011 -0.13764668 -0.010288816 0.029815258
0003d0 02 e9 20 3e 8e 3b 3d 3d 2c 4e 75 3d e1 06 11 be
       0.15713885 0.046199374 0.059889004 -0.1416278
0003e0 bd 38 00 bb ef a2 1a be 57 af 2c be c8 ee 64 3c
       -0.0019565069 -0.15101217 -0.16863762 0.0139729455
0003f0 2d 26 ea 3b 0f 4e 41 3e 0d d0 d6 bd d8 d9 59 3d
       0.007145664 0.18877433 -0.10488901 0.053186268

lstm.bias_ih_l0 f4 [128]
000000 46 e4 c0 3e 19 7a f0 3e 23 cc d0 bd c1 73 f9 3e
       0.3767416 0.46968153 -0.10195186 0.48721126
000010 96 9c 5a 3e cc 91 9d 3e cd 82 a5 3e 48 f9 16 3f
       0.21348795 0.30775297 0.32326356 0.58974123
000020 60 71 f6 3e fb 9b aa 3e 82 db b5 3e d7 2f b9 3e
       0.48133373 0.3332213 0.35519034 0.3616931
000030 d2 1e 10 bd ee 23 14 3e f7 3e bf 3e 15 54 65 3e
       -0.035185643 0.14466831 0.37352726 0.22395356
000040 34 d1 95 3e 5c 44 04 3f 93 b3 78 3e 40 46 85 3e
       0.29261172 0.5166681 0.24287252 0.2603016
000050 51 19 99 3e b5 5c e8 3e 1f 2f 97 3e 18 b2 16 3f
       0.29902127 0.4538323 0.29528138 0.588655
000060 b4 81 24 3e c4 fc d6 3b ba 71 07 3e a1 92 e6 3e
       0.16065103 0.0065608937 0.13226977 0.45033744
000070 e4 f6 75 3e cb 8d cc 3e d5 62 a7 3e e9 64 f6 3d
       0.24019963 0.3995193 0.3269259 0.12030966
000080 5e 83 0f be 9e a4 42 3d 87 f0 ad 3e 2d 1c ca bd
       -0.14014956 0.047520272 0.3397257 -0.09868655
000090 f2 1a ae bb a8 e9 68 3e 0e 82 c6 be 98 1d 27 be
       -0.0053132707 0.22745383 -0.387711 -0.16319883
0000a0 84 2e b1 be 78 b3 16 be 93 72 96 3d 61 e5 50 be
       -0.346058 -0.147169 0.07346072 -0.20400001
0000b0 ec 93 fe 3c f4 67 9a 3e d5 d9 16 bd 8b c3 9f bd
       0.031076394 0.30157435 -0.036828835 -0.07800969
0000c0 02 0d 02 bf 08 0d af 3e be 7c 8c be 3c c2 dc 3d
       -0.508011 0.3418963 -0.2743892 0.10779235
0000d0 ec 85 ff bd 17 2f ac be 0b 9c ab be 83 1b b4 be
       -0.124767154 -0.33629677 -0.3351749 -0.3517724
0000e0 00 aa 3e be 6b fd 96 be e9 71 da bd 9b 08 42 3d
       -0.18619537 -0.29490218 -0.10666258 0.047371488
0000f0 c8 82 57 be 3c 32 89 bd b7 21 37 be dc ea 08 bd
       -0.21045983 -0.066990346 -0.17883955 -0.033427104
000100 7b 44 0c bf 79 b5 55 bf 0c 70 3b 3f bd a7 b2 3d
       -0.5479199 -0.8348003 0.73217845 0.087234
000110 65 66 1e 3f ba de 1f 3f d0 59 fa 3d 97 67 2f 3f
       0.6187499 0.6244923 0.122241616 0.6851744
000120 a2 74 04 bf 70 5b d7 3e 90 28 87 bf 2c df 43 bf
       -0.5174047 0.4206195 -1.0559254 -0.7651241
000130 d2 e1 18 bc 3d 44 5c 3f 33 f8 11 bf e6 a1 96 3e
       -0.0093311835 0.86041623 -0.57019347 0.29420394
000140 68 f7 93 bf 21 80 3e bf 52 6e 54 bf bb e0 d3 3e
       -1.1559877 -0.7441426 -0.82980835 0.41382393
000150 45 16 82 3d 4f 5a 12 3f 30 9d 3f 3f 90 df 52 3f
       0.06351904 0.5716905 0.74849224 0.8237238
000160 28 81 f3 be 07 bf 90 3e 6f 6a a3 bd 57 ff 47 bf
       -0.47559476 0.28270742 -0.07979285 -0.7812399
000170 a9 bf 8e 3e 1b c9 63 3f fe 3e 29 3f e3 37 18 bf
       0.278806 0.8897874 0.66111743 -0.59460276
000180 93 d7 24 3e 2f 14 34 3e 41 b9 ea 3e 70 2f cd 3e
       0.1609786 0.17585824 0.45844463 0.40075254
000190 ca a7 ef 3e cc 30 f3 3e 13 36 16 3f 3a f8 cc 3e
       0.468077 0.47498167 0.5867626 0.40033132
0001a0 37 0d 6d 3f 71 18 92 3e 9b 4e 28 3f 6a 7f 81 3e
       0.9259829 0.28534272 0.6574494 0.25292522
0001b0 c9 d8 3b 3e 1a 46 c4 3e 64 36 fb 3e 96 7e a9 3e
       0.18344416 0.38334733 0.49064934 0.3310439
0001c0 fc e1 fa 3e 50 9e dc 3e ca 91 44 3e 08 2c cd 3e
       0.49000537 0.43089533 0.19196239 0.40072656
0001d0 c0 d7 a0 3e 55 8e e4 3e ba 6f 93 3e 64 8a df 3e
       0.31414604 0.4463984 0.28796178 0.4366027
0001e0 9f 44 89 3d 6b 88 dd 3d 3e 5e 58 3e 3b 9d 14 3f
       0.067025416 0.10817035 0.211297 0.58052415
0001f0 0e 48 20 3d 33 02 48 3e 6c a3 97 3e 37 d5 9d 3e
       0.039131217 0.19532089 0.29616868 0.30826733

lstm.bias_hh_l0 f4 [128]
000000 64 2c b3 3e ba 6e c5 3e 82 6a 03 be cf 8f 3a 3f
       0.34994805 0.3856104 -0.12833598 0.72875684
000010 12 0a 8c 3e 39 6d fe 3e e6 c3 64 3d 08 44 1e 3f
       0.27351433 0.49692705 0.055850886 0.6182256
000020 c0 e7 0a 3f 73 1b 61 3e b7 a3 a8 3e d5 91 b4 3e
       0.5425987 0.21983127 0.32937405 0.3526751
000030 52 eb 94 3d f5 c2 86 3e 91 06 83 3e 1b 6b 9c 3e
       0.07271446 0.26320615 0.25590947 0.30550465
000040 aa c2 17 3e 01 1b dd 3e 89 16 29 3e da 12 b0 3e
       0.14820352 0.43184665 0.16512503 0.34389383
000050 04 91 92 3e 07 1b 79 3e 72 6e e2 3e 67 88 23 3f
       0.28626263 0.24326716 0.44224888 0.6388001
000060 de 22 4e bc b9 53 47 3e 43 41 16 bc 56 ed a4 3e
       -0.012581555 0.19465531 -0.009170833 0.32212323
000070 3f 18 1c 3e e2 52 f8 3e 14 a5 c6 3e 1f 4e 2f be
       0.15243624 0.48500735 0.3879782 -0.17119645
000080 e1 5d 78 be 4c c7 32 3e f7 c2 9e 3d 45 c8 0e be
       -0.24254562 0.17458838 0.0775203 -0.13943584
000090 03 76 a2 bd 71 66 6b b9 49 9d d3 bd 0d dd 36 3d
       -0.07932665 -0.00022449509 -0.10332734 0.044644404
0000a0 c2 b4 b1 be f5 5d f0 bd 5e bb 1e 3c 61 b0 be 3d
       -0.3470822 -0.11736671 0.0096882265 0.09310985
0000b0 07 7c 87 3e 0d 19 c0 3e 2f c5 3a be 63 d9 cf be
       0.26461813 0.37519112 -0.18239282 -0.4059554
0000c0 79 59 9d be a8 f2 0a 3f ca 6c 59 be 33 6e 85 3c
       -0.30732325 0.54276514 -0.21232906 0.016287899
0000d0 dd f9 8e be 8f 6c c8 bd 31 02 8e be d0 08 05 bf
       -0.27925006 -0.09786331 -0.27736047 -0.5196657
0000e0 67 ef 5c 3d d6 bb 58 be c3 31 f8 3d 1d 15 75 3d
       0.05393925 -0.21165404 0.12118866 0.05983459
0000f0 a2 94 ab 3b a2 66 85 3d e7 59 e9 be cb cb 6e bd
       0.0052362243 0.06513716 -0.45576403 -0.05829982
000100 2b 01 1b bf 7d 5e 55 bf 46 87 2d 3f f1 64 d4 bd
       -0.6054866 -0.833473 0.67784536 -0.103708155
000110 e3 82 17 3f 83 65 40 3f 74 47 ae 3d c8 47 27 3f
       0.5918409 0.75154895 0.08509722 0.65343904
000120 75 b4 44 bf eb 3c ea 3e 7b 4c 7b bf fa 8a 43 bf
       -0.76837856 0.45749602 -0.98163575 -0.76383936
000130 6f 8b 52 be 71 5f 13 3f 2f 01 0c bf 3b 4b 0e 3e
       -0.20561002 0.5756751 -0.54689306 0.13895886
000140 57 6b 8e bf c1 e1 31 bf f9 2a 21 bf 76 e4 14 3f
       -1.1126508 -0.694851 -0.62956196 0.58161104
000150 0f 5f 18 3e 67 df eb 3e 53 f6 46 3f bf e0 7d 3f
       0.14880012 0.4606888 0.7771961 0.9917106
000160 64 e5 ff be 93 0e 02 3f 32 ae 84 be 05 47 70 bf
       -0.499797 0.5080349 -0.2591415 -0.9385837
000170 47 a4 ed 3e c5 1f 82 3f 30 3e 19 3f 77 e0 23 bf
       0.46414396 1.0165945 0.59860516 -0.6401438
000180 8c fa 4c 3e cf c1 8b 3e 67 ac 29 3f fd e9 17 3f
       0.20017451 0.27296302 0.6627869 0.5934141
000190 5c 07 c4 3e 1c 50 0c 3f 17 16 8d 3e 60 30 01 3f
       0.38286865 0.5480974 0.27555916 0.5046444
0001a0 88 34 39 3f 2e b1 b5 3e 15 7e 5e 3f 5e 92 df 3e
       0.7234578 0.3548674 0.86911136 0.43666357
0001b0 01 ef 40 3e 98 44 5d 3e 42 a3 d4 3e 9f 41 bc 3e
       0.18841173 0.21608198 0.41530806 0.36768815
0001c0 eb 27 e2 3e d2 f6 2f 3f 26 d7 8a 3e ad b8 25 3f
       0.4417108 0.6873599 0.2711727 0.6473492
0001d0 f8 7e 07 3f 92 a5 c0 3e 81 ca 0d 3e 1f 36 20 3f
       0.52928114 0.3762632 0.1384678 0.6258258
0001e0 d8 f7 0c 3c ec 4c d1 3e 9a e1 50 3e e5 c6 1e 3f
       0.008604012 0.40879 0.2039856 0.6202224
0001f0 d3 c2 9c 3e 07 1c 88 3e 24 77 d6 3e 26 a4 ca 3e
       0.3061739 0.26583883 0.41887772 0.3957836

hidden2tag.weight f4 [10, 32]
000000 e7 60 5c bf 24 aa 9a bf 25 0f 6a be 32 53 0b 3f
       -0.8608536 -1.2083173 -0.2285734 0.5442382
000010 21 eb 05 bf c2 4b 47 bf 95 ac d4 3f 61 71 d6 3e
       -0.52311903 -0.7784997 1.6615168 0.41883376
000020 6c a6 9d be 3b c3 95 3f 29 81 1e bd 44 88 23 bf
       -0.30791032 1.1700205 -0.038697395 -0.638798
000030 3c 77 6c 3f 77 a1 02 3e 85 09 0f 3f 04 00 1f 3c
       0.9236944 0.12756906 0.558739 0.009704594
000040 7c cd 0a be b3 44 6b 3e a6 7d 43 3d f5 21 96 3f
       -0.13554949 0.22975425 0.04772725 1.1729113
000050 2e 28 6e be 54 f0 58 bf fc d2 46 3f de 6d 09 bf
       -0.23257515 -0.8474171 0.77665687 -0.5368327
000060 79 4d e7 be 90 76 dd bd d0 e1 05 bf 54 bb 9d bf
       -0.45176294 -0.108136296 -0.5229769 -1.2322793
000070 06 82 da 3e f7 2d 92 3f a3 33 6b 3f d1 96 a1 3f
       0.42677325 1.1420277 0.91875666 1.262415
000080 46 00 0f 3e a9 a9 31 3e ea 3d 3e be 63 22 e5 bd
       0.13964948 0.17349876 -0.18578306 -0.11188199
000090 fc 49 8a be 0d f7 3d be 79 fb aa 3d 67 40 b3 bc
       -0.2700957 -0.18551274 0.08348746 -0.021881295
0000a0 f6 b2 82 3d ea e3 15 bc f4 ee 87 3e ea ef 98 3e
       0.0638179 -0.009148577 0.26549494 0.2987054
0000b0 8f c3 3a 3e 5a fc 8e be 19 db b3 3d 71 22 95 be
       0.18238662 -0.27926904 0.08782024 -0.2912784
0000c0 dd 0a 8c 3e b6 0e 04 3f 7f 9f 04 3e 60 ee 3e be
       0.27352038 0.5158495 0.12951468 -0.1864562
0000d0 de 2f a9 be 3e 1d 01 bd e2 b4 c4 bd 92 cd bf bc
       -0.33044332 -0.03152203 -0.09604813 -0.023413453
0000e0 69 25 58 3d 15 ff 3f be 07 15 d7 3c 80 29 9c 3e
       0.052770052 -0.1874965 0.026255144 0.30500412
0000f0 25 55 3b be d8 e0 81 be 86 5d 0b be 83 07 b5 3d
       -0.18294199 -0.25366855 -0.13609895 0.08839323
000100 cb f3 27 bf 2d a6 60 bf 5e 05 2d 3f f1 97 8b be
       -0.65606374 -0.87753564 0.67586315 -0.2726436
000110 2f 1a 43 be 1d 72 29 be e4 8c 55 3d 04 30 94 3d
       -0.19052957 -0.16547437 0.052136317 0.07235721
000120 64 ed 62 bf c4 36 3a bf 7d 3f a5 bf 2e 6f 5e 3e
       -0.8864348 -0.72739816 -1.291 0.21722099
000130 54 93 cf bd e2 8c 06 bd de 15 3e bf 4e 35 89 bf
       -0.101355225 -0.0328492 -0.74252117 -1.0719392
000140 12 c3 af bf 34 88 2c be c3 31 68 bf 04 35 c5 be
       -1.3731406 -0.16848832 -0.9070093 -0.3851701
000150 1b a2 8a 3f 19 23 af 3f c3 e1 ae be a8 20 55 3f
       1.0830721 1.3682586 -0.34156618 0.83252954
000160 59 a9 d8 bd 59 7b 83 3e 63 2b aa be f9 c6 8c bf
       -0.105791755 0.25680044 -0.33236226 -1.0998222
000170 fe b1 95 bf 5b d9 b0 3f 5e 6c 01 bf d2 a5 26 be
       -1.1694944 1.3816332 -0.5055598 -0.16274193
000180 96 98 36 bf d6 32 95 3f 1e 23 bc be 78 67 93 bf
       -0.7132658 1.1656139 -0.36745542 -1.1515951
000190 ca f1 e3 3e 16 50 6c 3d 42 b9 28 bf fb 16 00 c0
       0.44520408 0.057693563 -0.6590768 -2.0014026
0001a0 51 a9 ae 3c 22 71 f9 be 48 0d b7 3f 85 23 cd 3f
       0.02132097 -0.48719126 1.4300928 1.6026465
0001b0 7f da 18 be d4 3b 90 be d3 54 e2 3f f1 43 d9 be
       -0.149271 -0.28170645 1.7682136 -0.42434648
0001c0 37 c7 cc bd 56 21 59 3f f2 49 95 3f df 18 f9 be
       -0.09998935 0.8481649 1.1663191 -0.48651788
0001d0 41 2d 18 3f 0f c1 10 3f 99 d1 f8 3e ca 79 cc bf
       0.5944405 0.56544584 0.4859741 -1.5974667
0001e0 0d a3 84 3e 55 d8 c2 bd 03 43 e2 be bf ca 76 3f
       0.25905648 -0.09513918 -0.4419175 0.96403116
0001f0 15 14 f8 be 5b 26 df bf 1d e9 a3 3f 89 99 8a 3d
       -0.4845282 -1.743358 1.2805516 0.06767566
000200 72 b6 23 be 8d 46 12 3f 13 d2 bf be 11 19 0e 3e
       -0.15987566 0.571389 -0.3746496 0.1387675
000210 d3 57 d9 3e fd a6 1f 3f 12 c6 b5 be ab c3 36 3e
       0.42449817 0.6236418 -0.35502678 0.17848079
000220 57 9c c7 be cc 52 d8 3e 14 24 72 bd f7 37 59 3f
       -0.38986465 0.4225067 -0.059116438 0.8485102
000230 ab 9a b8 3e 91 09 e2 3c 60 f8 5f bf ea 54 7d 3e
       0.36055502 0.027592452 -0.87488365 0.24739423
000240 f8 9d 05 3f 25 1f e8 3e 9a 84 74 bf a8 68 2a bf
       0.52194166 0.4533626 -0.95514834 -0.6656594
000250 30 b9 ba 3e ab f5 85 be ff 9e 0a 3f d8 5e 57 bf
       0.36469412 -0.26163992 0.5414886 -0.84129095
000260 4e 15 78 3e 9e 85 b1 3e 97 d5 91 3e f8 01 97 3f
       0.24226877 0.34672254 0.2848327 1.1797476
000270 f4 b6 be 3e b4 62 80 bf 36 d8 9a 3e 4c 90 00 bf
       0.37248957 -1.0030122 0.3024308 -0.5022018
000280 29 38 59 3f be 2d 6b 3d fd 22 83 3f f2 c2 bf bf
       0.8485132 0.05741667 1.0245053 -1.4981368
000290 ab 39 00 3f 20 5a 7a 3f be 9c 3a be 20 bc 5a 3e
       0.50087994 0.9779377 -0.18223855 0.21360826
0002a0 96 f8 0b bf a6 51 a3 3e ae df bb 3e 8a b7 53 bf
       -0.5467619 0.3189823 0.36694092 -0.82701933
0002b0 59 07 0e bf b3 95 a9 bf 58 9e 28 bf c7 11 a2 3f
       -0.5547996 -1.324881 -0.65866613 1.2661675
0002c0 e1 85 b3 3f be 77 fb be 3f 43 4e bf ef fe 8f 3e
       1.4025232 -0.49114794 -0.8057136 0.28124186
0002d0 9a 02 1c be cf b0 b5 be d5 db 29 bf 55 11 e8 3f
       -0.15235367 -0.35486457 -0.6635106 1.8130289
0002e0 f5 53 a1 bc c3 84 c6 bf d4 7d 7d 3f d8 6a 9e 3d
       -0.019693354 -1.5509266 0.99020123 0.077352226
0002f0 b1 5e a6 3f 90 c2 18 bf b1 e1 fc bf c9 0d 24 3f
       1.2997648 -0.5967188 -1.9756376 0.64083534
000300 b7 61 2e 3e 3b cd a8 be 9f 08 7e be 5b f9 3c be
       0.17029463 -0.32969078 -0.24807976 -0.18454497
000310 01 dd 04 3f ef be 58 bf b8 a6 a3 be c8 9d 43 3f
       0.51899725 -0.8466634 -0.31963134 0.7641263
000320 8c ea 2f 3f 48 10 b8 3e 64 b4 4f 3e 92 9c eb bd
       0.68717265 0.35949922 0.20283657 -0.11504473
000330 0f 00 83 bf 95 47 7a 3f a4 03 a7 bf 0c 43 0f 3f
       -1.0234393 0.97765476 -1.3047986 0.5596168
000340 59 08 c0 be c1 11 b2 bf 29 c6 fe bd 5c fc 13 be
       -0.3750637 -1.3911668 -0.1244014 -0.14451736
000350 76 19 03 bf 29 0a 75 bf 0f 0a 93 3d 1d 09 49 be
       -0.51210725 -0.9571863 0.07179653 -0.19632383
000360 c7 1d b6 3e 00 de 70 3e 7f 13 74 be 84 7c 1e bf
       0.35569593 0.23522186 -0.23835562 -0.61908746
000370 01 5b 0a 3f f5 b0 10 3f 0b 33 e3 3e bf 63 d5 be
       0.5404511 0.56520015 0.4437488 -0.41677663
000380 fd a5 51 3d 22 fb 38 3c 2e 3d d0 bd 40 1e a9 3f
       0.05118369 0.0112903435 -0.10167919 1.3212357
000390 4a aa f5 be d2 c0 85 3e 56 8a cc be 18 f1 65 3f
       -0.47981483 0.26123673 -0.39949292 0.89821005
0003a0 97 00 f6 3f 3e 12 13 bf 3c 32 c5 be fd 22 4f bf
       1.921893 -0.5744971 -0.38514888 -0.8091276
0003b0 61 96 fd be 44 40 e4 3e 56 ad 4a 3f 72 e4 82 bf
       -0.49528793 0.4458028 0.7917074 -1.0225966
0003c0 30 2d ac bf 22 f3 2d be 6a c5 0f 3e 37 73 3f 3f
       -1.345129 -0.16987279 0.14040151 0.7478518
0003d0 a5 95 04 bf 27 9f 58 3f 1e 33 0c 3f 6f 70 67 3f
       -0.5179084 0.8461785 0.547655 0.90405935
0003e0 40 3e 2d 3c 76 54 3f 3e 6c b2 e4 be 50 40 35 bf
       0.010573924 0.18684563 -0.44667375 -0.7080126
0003f0 2b 45 45 bd 39 d3 e0 3e 24 a4 00 bf 86 da 5a bf
       -0.048161667 0.4391115 -0.5025046 -0.8548969

hidden2tag.bias f4 [10]
000000 e2 17 81 3f 21 10 fb bf c4 a8 82 3f 46 71 06 40
       1.0085413 -1.9614297 1.0207753 2.1006637
000010 60 7d 6b bf 1d 83 aa be 5c f8 d9 be 66 96 6f bd
       -0.9198818 -0.33303156 -0.42572296 -0.05849304
000020 03 6c ee bf 62 f5 ec 3f
       -1.8626713 1.8512385
